checkpoint_critic.pth (torch_old, 113391 bytes, 9 tensors)

fc1.weight f4 [164, 33]
00000000: f0e2 d13c 70aa 363c 0eeb f1bc 2ca1 9cbd
00000010: d073 76bc 7412 6d3d 4834 c23c 8287 49bd
00000020: 3074 0f3c cf96 88bd 763c 823d 0691 ecbc
00000030: 7cf5 553d f236 1e3d 3872 cc3c b8bf 213c
00000040: 7bb1 33bd f611 32bd c604 933d 2c43 593d
00000050: 609f 93bc 3860 243d 25cc 8ebd 887a 393d
00000060: 40df 9bba 503b d13b 987f b6bc 9a34 22bd
00000070: 3ce4 483d 30c3 5c3d 0824 913d 127a 333d
00000080: 4ed4 8b3d a49d 9e3d 90b8 863d bf27 04bd
00000090: 2a60 833d e007 693c 2e6f 893d cc3d ffbc
000000a0: 70e8 59bc 9685 353d fc5c ce3c 9866 b03c
000000b0: d20c 59bd bd7a 3fbd 3c37 453d ac10 d83c
000000c0: e027 3dbb a850 623c ead9 dfbc ae39 92bc
000000d0: 2837 cc3c 5880 1f3d 34de f83c a4ef 683d
000000e0: e87c 2fbd 100d 503d fc61 d23c e2ca c4bc
000000f0: 8019 5b3a e9fa 52bd 3c84 31bd a4e9 9dbc
00000100: c0c7 93bc 2466 7e3d 8220 6ebd 7795 7bbd
00000110: 042f c8bc 08e0 113c 909b bcbc 20f9 4c3c
00000120: 7cc9 9ebd f040 413d 602b 92bb 987d 573d
00000130: fa04 8dbd 94fa 3f3d b098 f93b 0437 febc
00000140: 58e5 21bc ca61 883d e0bb 5c3c f0d0 7a3d
00000150: 54bb 24bd ae4c 1ebd 6f73 03bd ae72 84bd
00000160: ee2d 67bd 00f1 5dbd d4ee ecbc 82a7 9a3d
00000170: e0bd 2bbb ad3e 81bd f099 a33c 0ce1 083d
00000180: d643 823d 66f3 fcbc 7725 88bd c0cc e7bb
00000190: 7877 073d f625 40bd 30c7 ccbb 8092 e4bc
000001a0: 84ed 8cbd 2c8e 88bd 90ca 06bd 2cc4 ccbc
000001b0: 84d3 0e3d 4886 583d c8b3 8cbd f60c acbc
000001c0: e6ca 913d 89c9 3bbd b8c8 583d 8adb 973d
000001d0: 800e 403d a2a1 803d 7bce 04bd f0e2 94bb
000001e0: 5c89 913c 90ce f3bb a830 bb3c 0ce9 c63c
000001f0: f303 89bd 3843 743c 0c11 313d e8da a0bc
00000200: 1215 29bd f87c 9dbd 70d2 943b 003f 8d39
00000210: 741e 033d b84e 09bc ecc7 273d 009f 16bb
00000220: 2025 393b 6027 733d 5ced 3c3d 20ba 7f3b
00000230: 8c20 743d cc2e 93bd 2406 7c3d e2f0 83bd
00000240: 88f5 0f3c 8cb0 0dbd 0c26 703d 7603 83bd
00000250: f232 b7bc 6398 05bd 4a08 133d 82e3 03bd
00000260: 0f00 8cbd b82d ba3c 0090 55ba 0ec7 0dbd
00000270: 2fde 96bd 9eee 393d a3b4 91bd a754 82bd
00000280: f841 403c 940c f83c 2c0a 763d ae03 69bd
00000290: 5c7c 393d 1e99 1e3d 6c37 d63c 37b9 4bbd
000002a0: 6ece b7bc 6043 4abb 6057 1a3d 32ed 3fbd
000002b0: 8862 4ebd 6936 94bd de57 9c3d 429b 74bd
000002c0: deaa 373d 50d9 bbbb 19bc 99bd cc67 da3c
000002d0: 5645 95bc a0a9 8abb b2f3 293d fefe acbc
000002e0: 3086 a63c 26ff 15bd 3ca5 8f3c d9a0 29bd
000002f0: b8a2 053d 96a1 edbc 3a3c 75bd 4ed1 e9bc
00000300: 9691 883d 46bc 333d 6202 3d3d 60cb 15bb
00000310: e001 503d da1e 39bd 3c16 10bd 2cfb d9bc
00000320: ca6e 98bc 8072 213d 9363 1cbd 9454 6bbd
00000330: a760 47bd dc91 513d 51a3 5cbd cea0 883d
00000340: 0dc9 9ebd f08d d0bc 9626 d7bc 0e45 72bd
00000350: c8c2 59bd 6c4f f0bc 9e69 59bd d048 9e3d
00000360: 7095 34bd 5d37 23bd 6e98 59bd 4836 c33c
00000370: 9222 24bd 1863 4ebc f535 99bd 24ab 9b3c
00000380: 20a6 e8bb 2026 3e3b ea57 84bd d4da 403d
00000390: c00e ccbb cea2 063d 8750 18bd 163d 2cbd
000003a0: 761e 5bbd 9ace 2bbd a0d8 37bb 7885 46bd
000003b0: ecb9 743d 3c40 343d 3657 343d a075 af3c
000003c0: c849 233d 7eef e2bc 0a64 82bd 0c6c 263d
000003d0: 50bc 8b3d 401d bd3b 9c7e 5c3d 7ea2 843d
000003e0: f0a9 af3b a04e 6f3c b866 76bd 32c7 94bd
000003f0: 7480 19bd d0b1 9f3b 44aa 083d b07e 753d
0.025620908 0.011149034 -0.029531028 -0.076479286 -0.01504226 0.057878926 0.02370657 -0.049201496
0.008755729 -0.066693895 0.06359188 -0.028877746 0.052236065 0.03862662 0.024956807 0.0098723695
-0.04387043 -0.04347416 0.07178645 0.053042576 -0.018020332 0.040130824 -0.06972531 0.04528287
-0.0011892095 0.0063852444 -0.022277638 -0.039600946 0.049045786 0.053897083 0.070869505 0.043817587
0.06827603 0.07744911 0.06578171 -0.032264467 0.06414826 0.014223069 0.06710659 -0.031157397
-0.013300046 0.04431685 0.025190823 0.021533296 -0.052990742 -0.04674791 0.04814838 0.026375137
-0.0028862879 0.013813175 -0.02732559 -0.01784977 0.024928644 0.038940758 0.030379392 0.056869164
-0.04284373 0.050793707 0.025681488 -0.024022523 0.0008357987 -0.051508818 -0.043339 -0.019276448
-0.018039584 0.062109128 -0.05813647 -0.061421838 -0.024436481 0.008903511 -0.023023397 0.012510568
-0.07753274 0.04718107 -0.004460737 0.05261001 -0.06885715 0.04686983 0.0076170787 -0.031032093
-0.00988134 0.06659277 0.013472527 0.061234415 -0.040217713 -0.038647346 -0.032092508 -0.06467186
-0.056440286 -0.054184914 -0.028922476 0.07551481 -0.0026205704 -0.063107826 0.019970864 0.033417746
0.06360595 -0.03087778 -0.06647771 -0.0070739686 0.03307292 -0.046911202 -0.006249331 -0.027901888
-0.0688124 -0.06667742 -0.032908022 -0.024995886 0.034869686 0.052862436 -0.06870228 -0.021002274
0.07118778 -0.045846496 0.052925795 0.07414921 0.04688883 0.06280829 -0.032423478 -0.0045436546
0.017765693 -0.0074403957 0.02285035 0.024281047 -0.066902064 0.014908604 0.043229148 -0.019635633
-0.04127986 -0.076898515 0.0045416877 0.00026940554 0.032011464 -0.008380584 0.040962145 -0.0022982955
0.0028250888 0.059363723 0.0461248 0.0039020851 0.05960135 -0.0718666 0.061529294 -0.06442429
0.008786567 -0.034592196 0.058630034 -0.063971445 -0.02236316 -0.03261603 0.035896577 -0.03219939
-0.06835949 0.022726879 -0.0008146763 -0.03461366 -0.07366597 0.04539358 -0.07114532 -0.063638024
0.011734478 0.030279435 0.060068294 -0.056888275 0.045284614 0.038720243 0.026149474 -0.04973718
-0.0224373 -0.0030862913 0.037680984 -0.046857066 -0.050386935 -0.072369404 0.07633947 -0.059718378
0.044840686 -0.005732693 -0.0750658 0.026660822 -0.018221539 -0.0042316467 0.04149217 -0.021117684
0.020327657 -0.03662028 0.017534845 -0.041413162 0.032625884 -0.029007714 -0.05987189 -0.028542187
0.06668393 0.043880723 0.04614485 -0.0022856817 0.05078304 -0.045195438 -0.035177454 -0.026609026
-0.018607516 0.039415836 -0.0381809 -0.057453707 -0.04867616 0.051164493 -0.05386669 0.06671296
-0.07753191 -0.025458306 -0.026263516 -0.059147887 -0.053164274 -0.029334746 -0.05307924 0.07728732
-0.044087827 -0.03984772 -0.053123884 0.023829594 -0.04007203 -0.012596868 -0.074809946 0.019002505
-0.007099882 0.0029014423 -0.06462081 0.04708369 -0.0062273443 0.032870106 -0.03718617 -0.042050444
-0.053495847 -0.041945077 -0.0028052703 -0.04846713 0.05974762 0.04400657 0.044028483 0.021418393
0.039865285 -0.02770209 -0.06366737 0.040630385 0.06823027 0.005771309 0.05383168 0.064763054
0.0053608343 0.014606148 -0.060156554 -0.07264556 -0.037476018 0.004873492 0.033365503 0.05993527

fc1.bias f4 [164]
00000000: 0cd5 fe3d 0c48 fb3d a88b c53d fc2e be3d
00000010: 2833 d73d 32fe 16be 9aa8 59bd 8897 053e
00000020: eeed 93bd 70de 6e3c 0675 72bd 6036 e2bb
00000030: a85f f5bc a6b7 4cbd e017 fd3c 72b7 233e
00000040: 801d 5a3b 56c9 4cbd 62bb 113e 22ae a2bd
00000050: a0ce 383d 00a1 523b a489 513d f4a8 d03d
00000060: 3cd1 3c3d 200c 4abc 42dd 983d 08da ce3c
00000070: 887d f5bc bcd4 193d 87d4 b4bd 608e 7f3c
00000080: 0e9b d3bd 8892 a03d 2003 2d3e 1c37 68bd
00000090: 0f7c 1fbe 26d2 123e 95ed b7bd a40d ec3d
000000a0: 7416 f73d b2fe 7abd a083 903b 10fd 96bd
000000b0: 5e0d 153e d053 00be f8ce 9e3c c97a c8bd
000000c0: 4a71 0c3e 1c28 ad3d 4404 1a3e 199e a3bd
000000d0: cc17 713d 97fa 17be 68d5 d33d 00b4 6cbd
000000e0: 50b5 6d3d 642a ad3d d792 dfbd 1453 c83d
000000f0: 11cb 91bd f476 893d 787d 73bd c0d3 fb3b
00000100: 50f7 903c bca8 193e 64b1 4b3d c00d f83c
00000110: b8c0 03bd 808f 31be e276 9ebd 34ab 72bd
00000120: f48d 853d 50d9 4ebc b05f 5f3d acf0 b8bd
00000130: c96e 31be 289e 823d 0873 c03d 0c64 bc3d
00000140: dccb 133e e9da 2dbe 6c0b 543d 508c 0d3e
00000150: 8a23 b6bd 38bf c63d b050 b83d 8cc8 173d
00000160: a97e 2abe 9c23 a73d ee13 203e 4092 c3bc
00000170: 9c25 8e3d 1ed4 073e e316 05be ddd9 25be
00000180: 0804 8b3d 4050 efbb 1099 a7bd 338c 26be
00000190: 6c34 ddbd 80ad 403d f42e 03bd 35e7 1abe
000001a0: d844 90bc 403c 10bc a455 26be 54bc d53d
000001b0: 601a 323e 20fe fc3d 993d 20be 794e dbbd
000001c0: 274d 0bbe 7227 163e 73fa a8bd 42d0 043e
000001d0: 1357 94bd 0811 8c3d b8ff fb3d c3c2 adbd
000001e0: c8ce 9c3d 2c99 ae3d 48a0 233d c4b7 86bd
000001f0: 7d2e 09be a8bc 143d 9b4b 21be e417 6bbd
00000200: b8b5 e63c 20ea db3d 882f 083e bd82 15be
00000210: 32e7 9dbd 5829 80bc 40eb 5ebb 64fa 2abd
00000220: 6105 e2bd f447 1ebd c869 14bd 133c d8bd
00000230: 34ee 663d ced8 ffbd 92ca 18be 583c 013d
00000240: aa76 b0bd 5ef0 1c3e e27e e9bd 9eb6 f2bd
00000250: 843e 263e 3820 023d c8b6 2a3e 7858 1d3e
00000260: 56ea 303e dcdc 083e 3c24 d23d 0d3d d7bd
00000270: 404b 49bd 2837 94bc 0008 2ab9 de5b 0b3e
00000280: 380f 583d 2584 25be 7431 343d 4058 233c
0.12442979 0.12269601 0.09645778 0.09286305 0.10507804 -0.14745405 -0.053139307 0.13046086
-0.07223116 0.0145794 -0.059193633 -0.0069034547 -0.029952839 -0.04997983 0.030895174 0.15987948
0.0033281744 -0.049996696 0.14231637 -0.079433694 0.045118928 0.003213942 0.051156655 0.10188475
0.04609798 -0.012331992 0.074640766 0.02525045 -0.029967085 0.037556395 -0.08829599 0.01559791
-0.10332309 0.078404486 0.16895723 -0.05669318 -0.15574668 0.14337978 -0.08980862 0.11526039
0.120648295 -0.061278053 0.004410222 -0.073724866 0.1455588 -0.12531972 0.0193858 -0.097890444
0.13715091 0.08454916 0.1504069 -0.07989139 0.058860585 -0.14841686 0.103434384 -0.05778885
0.05803424 0.08455351 -0.10916679 0.09781471 -0.0711881 0.06712142 -0.05944583 0.0076851547
0.017696053 0.15005773 0.04972972 0.030279994 -0.032166213 -0.17339897 -0.07737519 -0.059245303
0.06521216 -0.0126250535 0.054534614 -0.090302795 -0.17327417 0.06377822 0.093969405 0.0919877
0.14433235 -0.16978039 0.051768705 0.13823056 -0.08893497 0.09704441 0.08999765 0.03705649
-0.1664988 0.08161089 0.15632603 -0.023873448 0.06940767 0.1326451 -0.12997012 -0.1619639
0.06787878 -0.0073032677 -0.08183491 -0.1626442 -0.10801014 0.047040462 -0.0320272 -0.15127261
-0.017610952 -0.008803427 -0.16243607 0.10436311 0.17392874 0.12353158 -0.15648498 -0.10708327
-0.1360365 0.14663485 -0.082508944 0.12970069 -0.072431706 0.06839186 0.12304634 -0.084844135
0.07656628 0.08525309 0.039947778 -0.06578019 -0.1339664 0.03631273 -0.15751497 -0.05739583
0.028162822 0.10738015 0.13299382 -0.14600654 -0.07710113 -0.015644714 -0.0034014732 -0.041742697
-0.11036182 -0.03864284 -0.036233693 -0.10558333 0.056379512 -0.12492524 -0.14921024 0.03155169
-0.086163834 0.15326068 -0.11401154 -0.11851238 0.16234785 0.031769007 0.16671288 0.1536578
0.17276892 0.13365501 0.102608174 -0.105096914 -0.04914403 -0.018092707 -0.00016215444 0.13609263
0.05274889 -0.1616369 0.043992475 0.009969771

bn1.weight f4 [164]
00000000: 88e9 393f a69b 923e c05b 6b3f 684c 163e
00000010: 341c 643f 91fb 723f d800 c13d a816 263e
00000020: b027 543f c04b d03d 6a1a f03e 7081 5a3e
00000030: 663a 433f f560 793f 8e5c 683f 5463 6e3f
00000040: 2d06 463f e0cc 923d 8fb1 223f 2125 753f
00000050: 5911 483f 18b5 3f3e 8e06 373f f288 1c3f
00000060: 68ab 403e c06e 7c3d 3cd7 5f3e 085a e33d
00000070: 1ab4 aa3e e711 0c3f 682e 7d3e 669a bb3e
00000080: 2e8c a93e ddcd 393f 5094 d43d 48ed 793f
00000090: ef08 7d3f 694a 6d3f b3ed 613f 3ae8 e23e
000000a0: 4cce 7c3e 0276 783f 8054 9d3c c032 b13c
000000b0: 38c9 683f c4aa 9c3e dec3 543f e8e2 593e
000000c0: 5448 243e 8804 133e ca64 f83e 4e4f fc3e
000000d0: 6c9f a13e 9c39 1a3f 8b79 4b3f dce6 8a3e
000000e0: 3ba0 493f 04b4 9f3e ff05 263f 060d ac3e
000000f0: 587d 6e3e 0ace 7b3f 6c68 303e 81bc 1e3f
00000100: a007 d03c c6f3 433f ebc0 543f 8031 ca3c
00000110: 78e2 2d3e 6098 9d3c e87b 1f3f f04c 333d
00000120: ed69 333f bd9e 793f 722d e13e 7ec4 3e3f
00000130: 38fc d23d aa48 283f 06f1 e03e 35ed 493f
00000140: d984 7f3f 3056 0c3e c694 da3e c857 4b3e
00000150: caac 333f 4bdb 723f ec2e d93e e59b 723f
00000160: bb0f 583f eefa dd3e a2d3 453f 4587 6b3f
00000170: 3215 093f 08ef a23d dcc4 223f 50d1 563d
00000180: d519 073f bcd5 293e 4be6 763f ac92 573e
00000190: 06fa 883e 543c 543f 18c4 343e 7638 7d3f
000001a0: 8159 143f 4129 433f 8091 4e3e 24cb f63e
000001b0: b5dd 3a3f 0742 403f e004 ec3e 463d 703f
000001c0: ae9b 373f d619 b73e 0099 673c 19ce 673f
000001d0: ecdd 5f3f c08f 693e 701a 063f a2be 3b3f
000001e0: fb06 613f 6efa 9b3e c7ca 383f e46f 5c3e
000001f0: 70d3 0a3f 7e19 ca3e dee7 193f 8b1d 483f
00000200: 1881 f93e 31b2 613f 9ee8 9c3e 0c77 5c3e
00000210: fe74 693f b639 033f 8a98 b83e d12b 203f
00000220: a9a5 1e3f 3ed5 d73e 48e3 763e 840a 7c3e
00000230: 9295 d03e 89aa 0e3f 806d 203d e831 633f
00000240: 94bb ff3e bed2 ff3e 677e 1d3f 01e0 133f
00000250: 13fd 1e3f 164a ff3e 907e e23e a406 2b3e
00000260: 1755 3c3f ead8 753f 2360 533f a043 033d
00000270: 1d63 563f 8e4c 2a3f 602e 433d 011b 773f
00000280: 31e3 673f 5edb 713f 702a 763d e28b b43e
0.72621965 0.28634375 0.91936874 0.14677584 0.89105535 0.9491511 0.09423989 0.1621958
0.8287306 0.10170698 0.46895152 0.21338439 0.76260984 0.9741357 0.9076623 0.9312031
0.77353173 0.07167983 0.6355218 0.9575978 0.7815147 0.18721426 0.71494377 0.6114646
0.18815386 0.061629057 0.21859449 0.111011565 0.33340532 0.54714817 0.24724734 0.36641234
0.3311476 0.7257975 0.10379851 0.9762769 0.98841757 0.92691666 0.88253325 0.443178
0.24688071 0.97055066 0.019205332 0.021630645 0.90932035 0.30599034 0.8311137 0.21277964
0.16043216 0.14357197 0.48514396 0.49279255 0.31566942 0.60244155 0.79482335 0.27129257
0.7876012 0.3119203 0.648529 0.33603686 0.23290002 0.98361266 0.17227334 0.62006384
0.02539426 0.76543844 0.8310687 0.024681807 0.16980922 0.019237697 0.6229844 0.043774545
0.70083505 0.9750784 0.43979985 0.74518573 0.10302013 0.65735877 0.43933886 0.78877574
0.99812084 0.13704753 0.4269163 0.19857705 0.7018553 0.94865865 0.4241861 0.94769126
0.84399 0.43355507 0.7727605 0.9200328 0.53547966 0.07955748 0.63581634 0.05244571
0.5277379 0.1658544 0.9644515 0.21052045 0.26753253 0.82904553 0.17652929 0.9891428
0.5794907 0.76234823 0.20172691 0.4820186 0.7299455 0.7510075 0.4609747 0.93843496
0.71721923 0.357619 0.014135599 0.90548855 0.87448 0.22808743 0.5238409 0.7333776
0.87901276 0.304645 0.72184414 0.21527058 0.5422888 0.39472574 0.60119426 0.7817008
0.48731303 0.88162524 0.30646223 0.21529788 0.9119414 0.51259935 0.36053878 0.6256686
0.6197153 0.42154878 0.24110138 0.24613386 0.40739113 0.55728966 0.039166927 0.88748026
0.49947798 0.4996547 0.61521 0.5776368 0.6210491 0.4986121 0.44237185 0.16701752
0.73567337 0.9603411 0.8256857 0.032046914 0.83744985 0.66523063 0.04765165 0.9652558
0.9058104 0.9447535 0.060099065 0.35262972

bn1.bias f4 [164]
00000000: 0000 0000 0000 0000 0000 0000 0000 0000
00000010: 0000 0000 0000 0000 0000 0000 0000 0000
00000020: 0000 0000 0000 0000 0000 0000 0000 0000
00000030: 0000 0000 0000 0000 0000 0000 0000 0000
00000040: 0000 0000 0000 0000 0000 0000 0000 0000
00000050: 0000 0000 0000 0000 0000 0000 0000 0000
00000060: 0000 0000 0000 0000 0000 0000 0000 0000
00000070: 0000 0000 0000 0000 0000 0000 0000 0000
00000080: 0000 0000 0000 0000 0000 0000 0000 0000
00000090: 0000 0000 0000 0000 0000 0000 0000 0000
000000a0: 0000 0000 0000 0000 0000 0000 0000 0000
000000b0: 0000 0000 0000 0000 0000 0000 0000 0000
000000c0: 0000 0000 0000 0000 0000 0000 0000 0000
000000d0: 0000 0000 0000 0000 0000 0000 0000 0000
000000e0: 0000 0000 0000 0000 0000 0000 0000 0000
000000f0: 0000 0000 0000 0000 0000 0000 0000 0000
00000100: 0000 0000 0000 0000 0000 0000 0000 0000
00000110: 0000 0000 0000 0000 0000 0000 0000 0000
00000120: 0000 0000 0000 0000 0000 0000 0000 0000
00000130: 0000 0000 0000 0000 0000 0000 0000 0000
00000140: 0000 0000 0000 0000 0000 0000 0000 0000
00000150: 0000 0000 0000 0000 0000 0000 0000 0000
00000160: 0000 0000 0000 0000 0000 0000 0000 0000
00000170: 0000 0000 0000 0000 0000 0000 0000 0000
00000180: 0000 0000 0000 0000 0000 0000 0000 0000
00000190: 0000 0000 0000 0000 0000 0000 0000 0000
000001a0: 0000 0000 0000 0000 0000 0000 0000 0000
000001b0: 0000 0000 0000 0000 0000 0000 0000 0000
000001c0: 0000 0000 0000 0000 0000 0000 0000 0000
000001d0: 0000 0000 0000 0000 0000 0000 0000 0000
000001e0: 0000 0000 0000 0000 0000 0000 0000 0000
000001f0: 0000 0000 0000 0000 0000 0000 0000 0000
00000200: 0000 0000 0000 0000 0000 0000 0000 0000
00000210: 0000 0000 0000 0000 0000 0000 0000 0000
00000220: 0000 0000 0000 0000 0000 0000 0000 0000
00000230: 0000 0000 0000 0000 0000 0000 0000 0000
00000240: 0000 0000 0000 0000 0000 0000 0000 0000
00000250: 0000 0000 0000 0000 0000 0000 0000 0000
00000260: 0000 0000 0000 0000 0000 0000 0000 0000
00000270: 0000 0000 0000 0000 0000 0000 0000 0000
00000280: 0000 0000 0000 0000 0000 0000 0000 0000
0.0 0.0 0.0 0.0 0.0 0.0 0.0 0.0
0.0 0.0 0.0 0.0 0.0 0.0 0.0 0.0
0.0 0.0 0.0 0.0 0.0 0.0 0.0 0.0
0.0 0.0 0.0 0.0 0.0 0.0 0.0 0.0
0.0 0.0 0.0 0.0 0.0 0.0 0.0 0.0
0.0 0.0 0.0 0.0 0.0 0.0 0.0 0.0
0.0 0.0 0.0 0.0 0.0 0.0 0.0 0.0
0.0 0.0 0.0 0.0 0.0 0.0 0.0 0.0
0.0 0.0 0.0 0.0 0.0 0.0 0.0 0.0
0.0 0.0 0.0 0.0 0.0 0.0 0.0 0.0
0.0 0.0 0.0 0.0 0.0 0.0 0.0 0.0
0.0 0.0 0.0 0.0 0.0 0.0 0.0 0.0
0.0 0.0 0.0 0.0 0.0 0.0 0.0 0.0
0.0 0.0 0.0 0.0 0.0 0.0 0.0 0.0
0.0 0.0 0.0 0.0 0.0 0.0 0.0 0.0
0.0 0.0 0.0 0.0 0.0 0.0 0.0 0.0
0.0 0.0 0.0 0.0 0.0 0.0 0.0 0.0
0.0 0.0 0.0 0.0 0.0 0.0 0.0 0.0
0.0 0.0 0.0 0.0 0.0 0.0 0.0 0.0
0.0 0.0 0.0 0.0 0.0 0.0 0.0 0.0
0.0 0.0 0.0 0.0

bn1.running_mean f4 [164]
00000000: 0000 0000 0000 0000 0000 0000 0000 0000
00000010: 0000 0000 0000 0000 0000 0000 0000 0000
00000020: 0000 0000 0000 0000 0000 0000 0000 0000
00000030: 0000 0000 0000 0000 0000 0000 0000 0000
00000040: 0000 0000 0000 0000 0000 0000 0000 0000
00000050: 0000 0000 0000 0000 0000 0000 0000 0000
00000060: 0000 0000 0000 0000 0000 0000 0000 0000
00000070: 0000 0000 0000 0000 0000 0000 0000 0000
00000080: 0000 0000 0000 0000 0000 0000 0000 0000
00000090: 0000 0000 0000 0000 0000 0000 0000 0000
000000a0: 0000 0000 0000 0000 0000 0000 0000 0000
000000b0: 0000 0000 0000 0000 0000 0000 0000 0000
000000c0: 0000 0000 0000 0000 0000 0000 0000 0000
000000d0: 0000 0000 0000 0000 0000 0000 0000 0000
000000e0: 0000 0000 0000 0000 0000 0000 0000 0000
000000f0: 0000 0000 0000 0000 0000 0000 0000 0000
00000100: 0000 0000 0000 0000 0000 0000 0000 0000
00000110: 0000 0000 0000 0000 0000 0000 0000 0000
00000120: 0000 0000 0000 0000 0000 0000 0000 0000
00000130: 0000 0000 0000 0000 0000 0000 0000 0000
00000140: 0000 0000 0000 0000 0000 0000 0000 0000
00000150: 0000 0000 0000 0000 0000 0000 0000 0000
00000160: 0000 0000 0000 0000 0000 0000 0000 0000
00000170: 0000 0000 0000 0000 0000 0000 0000 0000
00000180: 0000 0000 0000 0000 0000 0000 0000 0000
00000190: 0000 0000 0000 0000 0000 0000 0000 0000
000001a0: 0000 0000 0000 0000 0000 0000 0000 0000
000001b0: 0000 0000 0000 0000 0000 0000 0000 0000
000001c0: 0000 0000 0000 0000 0000 0000 0000 0000
000001d0: 0000 0000 0000 0000 0000 0000 0000 0000
000001e0: 0000 0000 0000 0000 0000 0000 0000 0000
000001f0: 0000 0000 0000 0000 0000 0000 0000 0000
00000200: 0000 0000 0000 0000 0000 0000 0000 0000
00000210: 0000 0000 0000 0000 0000 0000 0000 0000
00000220: 0000 0000 0000 0000 0000 0000 0000 0000
00000230: 0000 0000 0000 0000 0000 0000 0000 0000
00000240: 0000 0000 0000 0000 0000 0000 0000 0000
00000250: 0000 0000 0000 0000 0000 0000 0000 0000
00000260: 0000 0000 0000 0000 0000 0000 0000 0000
00000270: 0000 0000 0000 0000 0000 0000 0000 0000
00000280: 0000 0000 0000 0000 0000 0000 0000 0000
0.0 0.0 0.0 0.0 0.0 0.0 0.0 0.0
0.0 0.0 0.0 0.0 0.0 0.0 0.0 0.0
0.0 0.0 0.0 0.0 0.0 0.0 0.0 0.0
0.0 0.0 0.0 0.0 0.0 0.0 0.0 0.0
0.0 0.0 0.0 0.0 0.0 0.0 0.0 0.0
0.0 0.0 0.0 0.0 0.0 0.0 0.0 0.0
0.0 0.0 0.0 0.0 0.0 0.0 0.0 0.0
0.0 0.0 0.0 0.0 0.0 0.0 0.0 0.0
0.0 0.0 0.0 0.0 0.0 0.0 0.0 0.0
0.0 0.0 0.0 0.0 0.0 0.0 0.0 0.0
0.0 0.0 0.0 0.0 0.0 0.0 0.0 0.0
0.0 0.0 0.0 0.0 0.0 0.0 0.0 0.0
0.0 0.0 0.0 0.0 0.0 0.0 0.0 0.0
0.0 0.0 0.0 0.0 0.0 0.0 0.0 0.0
0.0 0.0 0.0 0.0 0.0 0.0 0.0 0.0
0.0 0.0 0.0 0.0 0.0 0.0 0.0 0.0
0.0 0.0 0.0 0.0 0.0 0.0 0.0 0.0
0.0 0.0 0.0 0.0 0.0 0.0 0.0 0.0
0.0 0.0 0.0 0.0 0.0 0.0 0.0 0.0
0.0 0.0 0.0 0.0 0.0 0.0 0.0 0.0
0.0 0.0 0.0 0.0

bn1.running_var f4 [164]
00000000: 0000 803f 0000 803f 0000 803f 0000 803f
00000010: 0000 803f 0000 803f 0000 803f 0000 803f
00000020: 0000 803f 0000 803f 0000 803f 0000 803f
00000030: 0000 803f 0000 803f 0000 803f 0000 803f
00000040: 0000 803f 0000 803f 0000 803f 0000 803f
00000050: 0000 803f 0000 803f 0000 803f 0000 803f
00000060: 0000 803f 0000 803f 0000 803f 0000 803f
00000070: 0000 803f 0000 803f 0000 803f 0000 803f
00000080: 0000 803f 0000 803f 0000 803f 0000 803f
00000090: 0000 803f 0000 803f 0000 803f 0000 803f
000000a0: 0000 803f 0000 803f 0000 803f 0000 803f
000000b0: 0000 803f 0000 803f 0000 803f 0000 803f
000000c0: 0000 803f 0000 803f 0000 803f 0000 803f
000000d0: 0000 803f 0000 803f 0000 803f 0000 803f
000000e0: 0000 803f 0000 803f 0000 803f 0000 803f
000000f0: 0000 803f 0000 803f 0000 803f 0000 803f
00000100: 0000 803f 0000 803f 0000 803f 0000 803f
00000110: 0000 803f 0000 803f 0000 803f 0000 803f
00000120: 0000 803f 0000 803f 0000 803f 0000 803f
00000130: 0000 803f 0000 803f 0000 803f 0000 803f
00000140: 0000 803f 0000 803f 0000 803f 0000 803f
00000150: 0000 803f 0000 803f 0000 803f 0000 803f
00000160: 0000 803f 0000 803f 0000 803f 0000 803f
00000170: 0000 803f 0000 803f 0000 803f 0000 803f
00000180: 0000 803f 0000 803f 0000 803f 0000 803f
00000190: 0000 803f 0000 803f 0000 803f 0000 803f
000001a0: 0000 803f 0000 803f 0000 803f 0000 803f
000001b0: 0000 803f 0000 803f 0000 803f 0000 803f
000001c0: 0000 803f 0000 803f 0000 803f 0000 803f
000001d0: 0000 803f 0000 803f 0000 803f 0000 803f
000001e0: 0000 803f 0000 803f 0000 803f 0000 803f
000001f0: 0000 803f 0000 803f 0000 803f 0000 803f
00000200: 0000 803f 0000 803f 0000 803f 0000 803f
00000210: 0000 803f 0000 803f 0000 803f 0000 803f
00000220: 0000 803f 0000 803f 0000 803f 0000 803f
00000230: 0000 803f 0000 803f 0000 803f 0000 803f
00000240: 0000 803f 0000 803f 0000 803f 0000 803f
00000250: 0000 803f 0000 803f 0000 803f 0000 803f
00000260: 0000 803f 0000 803f 0000 803f 0000 803f
00000270: 0000 803f 0000 803f 0000 803f 0000 803f
00000280: 0000 803f 0000 803f 0000 803f 0000 803f
1.0 1.0 1.0 1.0 1.0 1.0 1.0 1.0
1.0 1.0 1.0 1.0 1.0 1.0 1.0 1.0
1.0 1.0 1.0 1.0 1.0 1.0 1.0 1.0
1.0 1.0 1.0 1.0 1.0 1.0 1.0 1.0
1.0 1.0 1.0 1.0 1.0 1.0 1.0 1.0
1.0 1.0 1.0 1.0 1.0 1.0 1.0 1.0
1.0 1.0 1.0 1.0 1.0 1.0 1.0 1.0
1.0 1.0 1.0 1.0 1.0 1.0 1.0 1.0
1.0 1.0 1.0 1.0 1.0 1.0 1.0 1.0
1.0 1.0 1.0 1.0 1.0 1.0 1.0 1.0
1.0 1.0 1.0 1.0 1.0 1.0 1.0 1.0
1.0 1.0 1.0 1.0 1.0 1.0 1.0 1.0
1.0 1.0 1.0 1.0 1.0 1.0 1.0 1.0
1.0 1.0 1.0 1.0 1.0 1.0 1.0 1.0
1.0 1.0 1.0 1.0 1.0 1.0 1.0 1.0
1.0 1.0 1.0 1.0 1.0 1.0 1.0 1.0
1.0 1.0 1.0 1.0 1.0 1.0 1.0 1.0
1.0 1.0 1.0 1.0 1.0 1.0 1.0 1.0
1.0 1.0 1.0 1.0 1.0 1.0 1.0 1.0
1.0 1.0 1.0 1.0 1.0 1.0 1.0 1.0
1.0 1.0 1.0 1.0

fc2.weight f4 [128, 168]
00000000: 289f 74bc daf3 9fbd f025 db3c 0e3c 593d
00000010: b166 993d 9c44 a53c b2b1 553d 394f 913d
00000020: 743d cfbc e761 3dbd a03b 98bd d7c5 843d
00000030: 1ddc ab3d 6f27 9c3d fa34 3b3d c067 623b
00000040: 5165 82bd fc43 a23c 20e3 ae3c 5815 dfbc
00000050: e409 f2bc 0eb9 3c3d c5c3 0fbd 4619 4dbd
00000060: deea 6d3d 8b33 02bd f045 a7bc bd07 903d
00000070: 7181 79bd 525e 3b3d c074 6d3b 4459 883c
00000080: d0dd e03c 7070 d5bb 00dd b5bc 8ad4 e6bc
00000090: a126 8bbd f66b 4d3d 4c06 7dbd 7be1 28bd
000000a0: 7052 b33b 988c 0bbc b740 a63d 1c99 90bc
000000b0: 6046 13bb c09e a73c 2b5e b03d d612 79bd
000000c0: a697 dbbc f036 b9bc aff6 a23d 41e1 9a3d
000000d0: aeaa 1c3d d08a 5bbd cb20 943d a810 87bc
000000e0: 2300 56bd e0bb 6fbd 6f11 44bd bed7 8bbd
000000f0: 72aa 213d f2b9 5a3d 47af 00bd e0bd bd3b
00000100: 18e3 413c b0c8 fd3b 2696 153d 58e8 41bc
00000110: 2821 a2bd 3363 a3bd fa13 793d 885e dfbc
00000120: eea5 3b3d c629 5c3d b89c 0cbd 1482 c8bc
00000130: 7094 a1bb 7789 a1bd aace 2e3d 457c b43d
00000140: 58a5 86bd c2b1 603d 4977 a5bd d6ba 673d
00000150: 90e0 dc3c a047 0dbc 73ee 9a3d 5d0b 64bd
00000160: 96ec 3d3d ae05 683d 139f b03d 8856 2dbc
00000170: 07ad 93bd 40e8 b3ba dd13 b13d a865 c93c
00000180: 4072 5b3c 045b e83c bed0 adbd dc13 a6bc
00000190: 191f b13d e4d8 f43c a8a4 3dbd cab7 453d
000001a0: 7cf8 19bd 7643 81bd a812 c4bc 2c78 bd3c
000001b0: 9298 39bd 2a36 173d 1e93 f9bc 16df 1e3d
000001c0: d073 ab3b c826 b03c 5856 8dbc acfa b53c
000001d0: bc14 40bd 9a75 0b3d 5c87 7abd 060c 393d
000001e0: 1ee9 483d ac5b 883c 00c5 8bb9 e2fd 72bd
000001f0: c42b f5bc 40e1 82bd 8d69 923d f217 edbc
00000200: 239d 913d d40f 9abc 40fa 80ba a36f 87bd
00000210: a094 20bc 602d c5bb a411 aa3c 58f2 4ebc
00000220: 9623 533d e42c 92bc 0142 07bd 11fc 953d
00000230: 8623 1b3d be21 86bd 05af 20bd cc8e 083d
00000240: 601c 2abd 2f14 a93d 99fe a73d 1a06 3c3d
00000250: ea93 6c3d 151e acbd 0e87 193d 0f0c 903d
00000260: 7e3d 6ebd 1202 243d 5698 2dbd 7074 153c
00000270: bdeb b33d d0ec ecbb a316 a73d 781e 9abd
00000280: 62cc 7a3d db86 8e3d 9ef5 0f3d 30dc e6bb
00000290: d832 1ebc c7e6 853d ec11 54bd 977d 9a3d
000002a0: 9aab 203d 6c65 d03c 581f 89bc 6023 1abd
000002b0: 72a1 6b3d 874f 9a3d 00c4 fd3a b05f a23c
000002c0: 2275 5b3d 8d25 16bd a711 afbd 9e60 323d
000002d0: 08e5 7dbd 1bb0 b2bd 1846 cfbc 6ee3 b4bd
000002e0: 915e 92bd fc59 b3bd 050e 843d 3a85 3d3d
000002f0: 52a6 81bd 80a2 343c 7c72 a93c b00d d63c
00000300: 481c 65bc 0a3a eebc 13e6 9bbd 5722 963d
00000310: 52f1 0d3d 739d a13d 105e ca3c c0ca d8ba
00000320: 307b 65bc e43c 913c b6cb 16bd 9049 a2bd
00000330: f9a1 913d 9027 d1bc 65bc ae3d 852c aa3d
00000340: 30de e93b 9ce7 d93c 2a18 083d 4449 96bc
00000350: c913 993d 60e1 b5bb 224e 5b3d 40c9 143b
00000360: b85b f9bc 805f 98bd b0f6 e33b a03d 2b3c
00000370: eada 6b3d 5de3 16bd a169 833d b976 af3d
00000380: b812 153d 59df a13d 1d03 9fbd 0926 8ebd
00000390: 8c15 b03c f522 afbd 7cab 9a3c c01e bb3c
000003a0: 860b 213d 6047 7abd 20f8 73bc 7367 a53d
000003b0: 3da0 aa3d 5134 933d d2ec 343d 060e 6fbd
000003c0: a639 74bd 1501 a83d d467 fa3c cf38 983d
000003d0: 90b7 2ebd a753 a33d a3e3 1bbd de8e 16bd
000003e0: e8e2 c33c 6059 603c 89a8 8b3d 2466 dd3c
000003f0: 2f6d 93bd 6419 a9bc acb7 84bd b018 af3c
-0.014930524 -0.07810183 0.026751488 0.05303579 0.0749029 0.020174317 0.052171417 0.07095189
-0.025297858 -0.046235945 -0.074332476 0.064830475 0.08391593 0.07624709 0.04570482 0.0034546703
-0.06366981 0.019807808 0.021348536 -0.027231857 -0.029545732 0.04607492 -0.03509881 -0.05007293
0.058085315 -0.031787436 -0.020419091 0.07032726 -0.06091446 0.045744248 0.0036232919 0.016644128
0.027449518 -0.0065136477 -0.022200108 -0.028177518 -0.06794477 0.050151788 -0.061773583 -0.04123066
0.005472474 -0.008517407 0.08117812 -0.017651133 -0.0022472367 0.02046144 0.08611711 -0.06080898
-0.02680571 -0.022609204 0.079572074 0.07562495 0.03824871 -0.05359918 0.07232817 -0.016487435
-0.052246224 -0.05852878 -0.04786819 -0.06828259 0.03946919 0.053399988 -0.031417158 0.005790457
0.0118339285 0.007744871 0.036520146 -0.01183518 -0.0791648 -0.07977905 0.060810067 -0.027266756
0.04581254 0.053750776 -0.034329146 -0.024476089 -0.004931025 -0.078875475 0.04267756 0.08812765
-0.065745056 0.054857023 -0.080793925 0.056574665 0.026962548 -0.008623034 0.07565012 -0.0556749
0.046368204 0.05664604 0.08624091 -0.010579713 -0.07210737 -0.0013725832 0.08646367 0.024584606
0.013393939 0.028363712 -0.0848708 -0.020273142 0.086485095 0.029888578 -0.046299607 0.048270978
-0.03759049 -0.06311695 -0.023934677 0.023128591 -0.045311518 0.03691689 -0.030465659 0.03878697
0.005232312 0.021502867 -0.017253086 0.022214256 -0.046894774 0.0340477 -0.061164245 0.045177482
0.049050443 0.016645275 -0.00026658922 -0.059324153 -0.029928096 -0.06390619 0.071490385 -0.028942082
0.071100496 -0.018806376 -0.0009840205 -0.0661309 -0.00980106 -0.006017372 0.020760365 -0.012631021
0.05154761 -0.017843671 -0.03302193 0.073234685 0.037875675 -0.065494046 -0.03922941 0.033339307
-0.041530967 0.08255803 0.082028575 0.045904256 0.05775825 -0.08404175 0.037482314 0.0703355
-0.058164112 0.040041037 -0.042381607 0.009121999 0.08785198 -0.0072303787 0.081586145 -0.07525343
0.06123007 0.069593154 0.03514635 -0.0070452914 -0.009655677 0.06538158 -0.051774904 0.075434856
0.039226152 0.025438987 -0.016738579 -0.037631392 0.057527013 0.075347 0.0019360781 0.019821018
0.053578503 -0.036656905 -0.08548289 0.043549173 -0.061986 -0.08724996 -0.025301978 -0.08832441
-0.07146943 -0.087573975 0.064479865 0.046269633 -0.06330551 0.011025071 0.020684473 0.026129574
-0.013983794 -0.02908041 -0.076122425 0.073307686 0.03465397 0.07891359 0.024703056 -0.0016539916
-0.014006421 0.01772923 -0.036815368 -0.07924187 0.07110972 -0.02553156 0.08532027 0.08309273
0.0071370825 0.026599698 0.03322617 -0.018345483 0.07474477 -0.0055505484 0.05354131 0.0022702962
-0.030439243 -0.0744009 0.0069568977 0.010451704 0.05758182 -0.036837924 0.064166315 0.085675664
0.036394805 0.07903928 -0.07764266 -0.069408484 0.02149465 -0.085515894 0.018880598 0.022841811
0.03931763 -0.061103225 -0.014890701 0.08076372 0.08331344 0.07187713 0.044171162 -0.058362983
-0.05962529 0.082033314 0.030567087 0.074327104 -0.042655528 0.0797494 -0.03805889 -0.036757343
0.023911908 0.013693184 0.06819255 0.027026244 -0.071985595 -0.02064199 -0.06480345 0.021374077

fc2.bias f4 [128]
00000000: c548 8f3d a0d2 c9bb 708b 433c 88dc 11bc
00000010: fc0d 27bd 448e 3c3d e01a 133b 06e5 0e3d
00000020: d86e 7bbd a488 aa3c 95a1 823d f839 55bc
00000030: d66b 2a3d c833 cfbc 5d54 9abd e5cf 4cbd
00000040: 0441 c4bc 39ec 853d 5773 8e3d 0cb9 bd3c
00000050: 50f6 503c 80f5 a5bb c700 6abd 80c2 573a
00000060: 3880 263d 2abc 5fbd c2ec 753d 68a9 7a3c
00000070: 34a4 3cbd 981c 94bd 0490 bfbc 5fbd 9abd
00000080: 50fb be3c 26f0 2cbd 4718 9dbd ad3f 943d
00000090: f870 0c3d 130b 1ebd f122 9b3d 08a1 5cbc
000000a0: c41a 71bc a21d 80bd 72a4 223d 329a ebbc
000000b0: ac04 833c b08d 88bb 00ac d73c b062 df3b
000000c0: aab9 473d bce6 f3bc 4cba 0b3d 807a c2bb
000000d0: 7026 62bd 74fb 22bd 09ec 5fbd 7e6b 6ebd
000000e0: 04ec e03c e8e4 b93c d028 1dbc 32bd 6c3d
000000f0: 645d 8a3c 9854 60bc ea2b 6c3d 7bfb 933d
00000100: 972c 893d 52f7 5b3d dcfb 7cbd 5711 8ebd
00000110: 38eb 2a3c ee7c 573d ccf8 44bd 5c1a e93c
00000120: a7c4 8b3d 702e 123d 5c8d 54bd f67a 313d
00000130: e883 643c 49d3 913d 0eff 683d d6c3 3b3d
00000140: 3d9b 9b3d 0085 18ba e083 e13c 0dde 79bd
00000150: 367f 5e3d d87d 93bd 0a7d 92bc a0c7 19bb
00000160: 0855 683c 31de 6bbd 3a44 383d f021 383d
00000170: 7880 a93c 06b9 37bd 06e0 5abd 9233 84bd
00000180: a713 84bd bccf 62bd 9203 85bc 101d 613c
00000190: ef55 993d e879 d53c 72db 7abd 9430 49bd
000001a0: fde7 943d 0c3d a7bc 80dc 3e3a 1619 adbc
000001b0: b860 7bbd 0093 10bc c094 143c d0ec b8bb
000001c0: f5f7 81bd 88ec 73bd 9002 f1bb 248b 75bc
000001d0: 0440 71bd 0065 39bc 1056 093c dcd3 2f3d
000001e0: e2e7 7cbd b8a6 433d 3454 63bd 84f6 d53c
000001f0: 8846 133d 0035 453c 371d 94bd f740 0cbd
0.069963016 -0.0061591417 0.0119351 -0.008902676 -0.04078482 0.046034113 0.0022446439 0.034886383
-0.061385006 0.020817108 0.063784756 -0.013014309 0.041606747 -0.025293246 -0.07535622 -0.05000295
-0.023956783 0.065391965 0.06955593 0.023159526 0.012754038 -0.0050646663 -0.057129648 0.0008230582
0.040649623 -0.054622807 0.060040243 0.015299179 -0.046055034 -0.07232016 -0.023384102 -0.07555651
0.023313195 -0.04222121 -0.07670646 0.07238708 0.034287423 -0.03858478 0.07575024 -0.013466127
-0.014715854 -0.06255652 0.03970761 -0.02876005 0.015993439 -0.004167281 0.026327133 0.0068171844
0.048761047 -0.029773109 0.034113213 -0.0059350133 -0.055212438 -0.039790586 -0.05466846 -0.05820798
0.027456291 0.022692159 -0.00959225 0.05779762 0.016890235 -0.013692044 0.057659067 0.072257005
0.06697958 0.05370266 -0.06176363 -0.06936901 0.010432057 0.052609377 -0.048088834 0.028454952
0.06824618 0.035688818 -0.051892623 0.043330155 0.0139474645 0.071203776 0.056883864 0.04584106
0.07597969 -0.00058181584 0.027528703 -0.06100278 0.054320537 -0.07201737 -0.017881889 -0.0023464933
0.014180429 -0.057584945 0.04498694 0.04495424 0.020691141 -0.044854186 -0.0534363 -0.06455149
-0.06449061 -0.055373892 -0.016237054 0.013739839 0.07487094 0.026059106 -0.061244436 -0.049118593
0.07270811 -0.020414852 0.0007280782 -0.021130126 -0.061371535 -0.00882411 0.009068668 -0.0056434646
-0.06346122 -0.059551746 -0.007355042 -0.014986787 -0.05889894 -0.011315584 0.008382335 0.042926654
-0.06174458 0.047766417 -0.055500224 0.026118524 0.035955936 0.012036562 -0.07232135 -0.034241643

fc3.weight f4 [1, 128]
00000000: 4e28 84ba 2807 35bb 3887 8b3a 90bf 033a
00000010: 44fd fb3a e925 b4ba 443a 3f3a 4b34 23bb
00000020: 48d3 9439 4cf4 da3a 604f d0b9 496d 10bb
00000030: c889 bd3a e425 ea3a 50e6 e13a be2c 9bba
00000040: 41a7 0fbb 4441 20ba 8c77 27bb 30a3 77ba
00000050: 7e2d 84ba fc25 24bb 2048 dd38 e693 a5ba
00000060: 7472 d93a b498 fbba 0244 373b b00d dcba
00000070: 5462 a23a fa81 353b 64a1 373b bc9b 373b
00000080: 4eda 83ba 2843 1bbb a0a8 d1b9 3054 393a
00000090: e031 d2b8 1f60 0dbb 9860 92ba 144a b13a
000000a0: d6a9 2e3b a834 4cba de46 153b 40ad 5b3a
000000b0: 2ea9 083b f85c 223b acf2 243b 4071 9b39
000000c0: 878e 9eba 9cd3 b63a f025 053b 1465 9cba
000000d0: 3c50 443b 90da b0b9 e8a5 d739 e021 713a
000000e0: 1bfc e8ba 8b4c 97ba 40b0 b839 a0b8 e9b8
000000f0: eb4a ffba 9891 c239 b441 5c3a 889e 233a
00000100: f3e9 2cbb 9adc 0a3b 7065 b739 a62f 083b
00000110: 8c48 22ba 61a2 fdba 987b fb3a b0e5 7b3a
00000120: e897 403b 287a 4e3a 6002 0cbb d4eb bb3a
00000130: b402 7dba 6454 ec3a 309f 03ba 8802 763a
00000140: d6fb 063b 7847 a83a fd01 dcba ec03 b03a
00000150: 8c94 833a 8c03 b73a 8006 5e3a 40ec 7338
00000160: 7001 79ba 0e91 1a3b 0075 0aba d391 28bb
00000170: 80e8 b63a 020e 243b 881d ae39 763e 1cbb
00000180: 0616 d7ba c03e 763a 344d e8ba d843 8c39
00000190: d41f 003b c00b 35bb 681b 9fb9 06cc 0abb
000001a0: 54d9 0eba d021 72ba f01c 86ba 3c03 0bbb
000001b0: 2791 9cba 5438 c03a c0e9 2a3a 2cd6 9d3a
000001c0: 14c1 403b 3884 443b 7873 e3b9 983f 8439
000001d0: d4de 3b3a 2d04 fcba 2c4f 163a 2807 433b
000001e0: 303a 663a e89e 9839 b915 c8ba c0d0 26b9
000001f0: b8e4 843a 9449 033b b018 c43a 2c47 343b
-0.0010082813 -0.0027622674 0.0010645157 0.00050257985 0.0019225259 -0.0013744208 0.0007294754 -0.0024902995
0.00028386177 0.0016704886 -0.0003973199 -0.0022037795 0.0014460618 0.0017864075 0.0017234776 -0.0011838896
-0.002191976 -0.0006113241 -0.0025553433 -0.0009446619 -0.0010084359 -0.0025047055 0.000105515355 -0.0012632578
0.0016589896 -0.0019195289 0.002796412 -0.0016788747 0.0012388923 0.002769588 0.002801978 0.002801641
-0.0010059567 -0.0023691151 -0.00039989222 0.0007069735 -0.0001002287 -0.0021572185 -0.0011167703 0.0013526105
0.0026651523 -0.0007789829 0.0022777836 0.0008380003 0.0020852792 0.0024774652 0.0025169058 0.00029648282
-0.001209692 0.0013948563 0.0020316802 -0.0011931979 0.002995505 -0.00033732178 0.00041131605 0.0009198468
-0.0017775329 -0.0011543197 0.0003522653 -0.00011144695 -0.0019477283 0.0003711104 0.00084021245 0.00062415795
-0.0026384562 0.0021188618 0.00034980057 0.0020780354 -0.000619062 -0.0019350761 0.0019186614 0.0009609116
0.0029387418 0.0007876479 -0.002136372 0.001433725 -0.0009651587 0.0018030521 -0.0005020974 0.00093845325
0.0020596883 0.0012838682 -0.001678526 0.0013428903 0.0010038777 0.0013962849 0.00084695965 5.815574e-05
-0.00094988104 0.0023584994 -0.00052817166 -0.0025721684 0.0013954788 0.0025032763 0.0003320987 -0.002384094
-0.0016409762 0.0009393506 -0.0017723204 0.00026753428 0.001955022 -0.0027625412 -0.00030347263 -0.0021178736
-0.00054492545 -0.0009236606 -0.0010232013 -0.0021211645 -0.0011945114 0.0014665225 0.0006519817 0.0012041978
0.0029411959 0.0029986035 -0.00043382845 0.00025224383 0.0007166688 -0.0019227319 0.00057338434 0.0029758904
0.00087824743 0.00029110094 -0.0015265263 -0.00015908759 0.0010138964 0.002003287 0.0014960971 0.0027508242
