checkpoint_actor.pth (torch_old, 137228 bytes, 10 tensors)

fc1.weight f4 [164, 33]
0	0x3ce811a8	0.028328732
1	0x3cef97b0	0.029247135
2	0x3ba86ba0	0.005139783
3	0x3bf186a0	0.007370785
4	0x3d85d548	0.06534821
5	0xbcc7b1d2	-0.024376784
6	0x3a85a880	0.0010197312
7	0xbd8fdfdd	-0.070251204
8	0xbd979f3d	-0.07403419
9	0x3cee112c	0.029060923
10	0xbd808981	-0.06276227
11	0x3d8e0d88	0.06936175
12	0xbd34848f	-0.04407173
13	0x3d5bb4f0	0.053639352
14	0xbc9b606c	-0.018966876
15	0xbd88e37b	-0.066840135
16	0xbd86c857	-0.065811805
17	0xbcc40c8c	-0.023931764
18	0x3cce85c8	0.025210276
19	0x3d50c698	0.050970644
20	0xbce1cd7a	-0.0275638
21	0xbca81478	-0.020517573
22	0xbd06499d	-0.032785047
23	0x3ca4c63c	0.020114057
24	0xbd08773e	-0.033316843
25	0xbd499784	-0.049216762
26	0x3d9f7cc8	0.07787472
27	0x3d943bf6	0.07237999
28	0x3d87dd80	0.06634045
29	0xbd02b3e6	-0.031909846
30	0xbc0fb7b8	-0.008771829
31	0xbd530a20	-0.051523328
32	0xbd924ae1	-0.07143188
33	0xbd8caf30	-0.06869352
34	0xbc9b7140	-0.0189749
35	0xbcfe5c84	-0.031049974
36	0xbd10a11c	-0.035309896
37	0x3ca2bf40	0.019866586
38	0xbbecca20	-0.0072262436
39	0x3d840ba8	0.06447536
40	0x3d82a98c	0.06379995
41	0x3d2a3c68	0.041561514
42	0x3d833b82	0.064078346
43	0xbd3ce3ff	-0.04611587
44	0xbc5afdd0	-0.013366178
45	0xbd7645ce	-0.060125165
46	0x3c95ec40	0.01830113
47	0x3b9fec00	0.0048804283
48	0x3cfde2b0	0.030991882
49	0xbc9d3fb8	-0.019195423
50	0x3d7ebf38	0.06219408
51	0x3c152748	0.009103604
52	0x3d256e84	0.0403886
53	0x3d3d81fe	0.04626655
54	0x3d2e88e8	0.042611033
55	0x3d49bb28	0.04925075
56	0xbd24cb81	-0.04023314
57	0x3c59ec98	0.013301037
58	0x3d6631e8	0.056199938
59	0xbd08205a	-0.033233978
60	0xbd808992	-0.062762395
61	0x3d5416a8	0.05177942
62	0x3c141268	0.0090375915
63	0x3b02d3c0	0.0019962639
64	0x3cba5fa0	0.022750676
65	0x3d6a7ba8	0.057246834
66	0x3d29936e	0.041400366
67	0xbc084838	-0.008318
68	0xbd5f6c06	-0.05454638
69	0xbd831529	-0.0640052
70	0xbd26e245	-0.04074313
71	0x3d966de0	0.07345176
72	0xbcd3542c	-0.025796972
73	0xbd023a53	-0.031793904
74	0x3cfe4f38	0.031043634
75	0xbd8d9aff	-0.06914329
76	0x3d1ddb64	0.038539305
77	0x3d5a3778	0.053275555
78	0x3d964ff4	0.073394686
79	0x3d003d40	0.031308413
80	0xbce2cfd8	-0.027686998
81	0x3c5b6aa8	0.013392128
82	0x3d8624fc	0.06550023
83	0xbbe04e00	-0.006845236
84	0xbd86f2f8	-0.06589311
85	0xbd32efec	-0.04368584
86	0xbc4e53b0	-0.012593195
87	0x3b90e830	0.00442221
88	0xbd12cce0	-0.035839915
89	0x3d206ec4	0.039168134
90	0x3d59f28c	0.053209826
91	0xbcb17140	-0.021660447
92	0x3cd04674	0.02542422
93	0x3cb6846c	0.02227994
94	0x3d057e96	0.032591425
95	0x3d04f5a8	0.03246084
96	0xbbf34b80	-0.007424772
97	0x3d134b2e	0.03596037
98	0xbcaf231c	-0.021379046
99	0x3d9b73ec	0.0759047
100	0xbd665584	-0.056233898
101	0x3d9df52e	0.0771278
102	0x3d1c603c	0.038177714
103	0xbd358ff8	-0.044326752
104	0xbd8b6c88	-0.0680781
105	0x3c0e58e0	0.008688182
106	0xbc8b8f9a	-0.017036248
107	0x3d7e6e28	0.062116772
108	0xba9dafc0	-0.0012030527
109	0x3cc3307c	0.02382683
110	0xbd76085a	-0.06006656
111	0xbd2a15b4	-0.041524604
112	0x3bf22b20	0.007390395
113	0xbd99d500	-0.0751133
114	0x3d6e40e4	0.058167353
115	0xb9e67a00	-0.00043959916
116	0x3cc5d4d8	0.024149343
117	0x3d7a2dc8	0.061078817
118	0xbcc1eab4	-0.023671485
119	0xbd7a73fd	-0.06114577
120	0xbd127ec7	-0.035765436
121	0xbbe5dd70	-0.007014923
122	0xbd0ba704	-0.034094825
123	0xbaa93d80	-0.0012912005
124	0xbd9db80d	-0.077011205
125	0x3cf40e1c	0.029791884
126	0x3d58e1b4	0.052949622
127	0xbd468164	-0.04846324
128	0x3d7e81a4	0.062135354
129	0x3ccf4110	0.025299579
130	0xbd638777	-0.05554911
131	0x3ab48a80	0.0013774186
132	0xbb9e2120	-0.004825726
133	0xbca99c46	-0.0207044
134	0xbba33800	-0.004981041
135	0xbcee96c2	-0.029124621
136	0xbd1a55f9	-0.037679646
137	0x3c0ee050	0.008720472
138	0xbd84f6ce	-0.06492387
139	0x3d23e40e	0.04001241
140	0xbd4198d4	-0.04726489
141	0xbc713640	-0.014722407
142	0xbd7b9840	-0.061424494
143	0xbd7aa492	-0.061192103
144	0x3cc94894	0.02457074
145	0x3c37af68	0.011211254
146	0x3cbcbafc	0.02303838
147	0xbbb71ed0	-0.00558839
148	0xbd55e958	-0.052224487
149	0x3d4d22fc	0.05008219
150	0x3d4c98dc	0.049950466
151	0x3cc03d84	0.023466833
152	0xbd6ff548	-0.058583528
153	0x3ca789d0	0.020451456
154	0x3d316c5e	0.043316238
155	0x3d9da654	0.0769774
156	0xbc2c4c28	-0.010516204
157	0x3d3e7d18	0.046506017
158	0xbcf68a22	-0.030095164
159	0xbd1cc3c0	-0.03827262
160	0xbccf6a84	-0.025319345
161	0x3d82bbf0	0.063835025
162	0xbd82606a	-0.06366046
163	0xbcb353d4	-0.021890558
164	0x3d580124	0.052735463
165	0x3cf7f0d4	0.030266203
166	0xbc771f78	-0.015083186
167	0xbc48cab8	-0.012255363
168	0x3c325a88	0.010885842
169	0x3d5e2ad0	0.054240048
170	0x3c4a1938	0.012335114
171	0xbd3dbdf2	-0.046323724
172	0xbd5754fa	-0.052571274
173	0xbce20526	-0.027590346
174	0x3d95ca4e	0.07313977
175	0xbc272b98	-0.010203265
176	0x3d68a124	0.0567943
177	0x3d7e3dc4	0.062070623
178	0x3d62b6f0	0.055350244
179	0x3d1a7ece	0.037718587
180	0xbbc57d20	-0.006026879
181	0xbd2e5061	-0.042557124
182	0xbd0c8a8d	-0.03431182
183	0xbce6579a	-0.028117944
184	0xbd93124f	-0.071812265
185	0xbd35cd17	-0.044385042
186	0xbc84454e	-0.016146328
187	0xbd593669	-0.053030405
188	0x3b01b9a0	0.001979448
189	0x3d6cb738	0.05779192
190	0xbd532ad6	-0.051554523
191	0xbbd3b7e0	-0.0064611286
192	0xbab0e4c0	-0.0013495907
193	0x3ccb9040	0.024849057
194	0xbbaea750	-0.005330004
195	0x3d57f598	0.05272445
196	0x3c086138	0.00832396
197	0xbca87084	-0.020561464
198	0x3d694a9c	0.05695592
199	0xbd3821a8	-0.044953972
200	0x3d79a664	0.060949698
201	0xbd21bfb5	-0.039489467
202	0xbd6b32cc	-0.05742149
203	0x3cda986c	0.026684009
204	0xbd8407c9	-0.064467974
205	0xbd8c12b4	-0.06839505
206	0x3ccd57b4	0.025066234
207	0xbc0f5e28	-0.008750476
208	0x3b52c320	0.003215976
209	0xbca7cf44	-0.020484574
210	0xbd4cd73f	-0.050009962
211	0xbb068ba0	-0.002053
212	0x3d9e88a4	0.07740906
213	0xbd85f113	-0.06540122
214	0x3cc39394	0.023874082
215	0x3d613078	0.054977864
216	0x3d727960	0.059197783
217	0xbd01078d	-0.03150134
218	0x3b1a9a80	0.0023590624
219	0xbcdbf990	-0.0268524
220	0x3d8ba76c	0.068190426
221	0x3d861392	0.065467015
222	0x3d9b5bd0	0.07585871
223	0xbbd256c0	-0.006419033
224	0xbc5e1a58	-0.0135560855
225	0xbd8fd65f	-0.0702331
226	0x3c3a6f50	0.011379078
227	0xbb05a120	-0.0020390227
228	0xbc2775c0	-0.010220945
229	0xbd3e0ae6	-0.046397112
230	0xbd96af18	-0.07357615
231	0x3c9a01e8	0.018799737
232	0x3d1703d0	0.03686887
233	0xbd3cd640	-0.046102762
234	0x3d70f1a0	0.05882418
235	0xbca23858	-0.019802257
236	0x3c0a1d78	0.008429877
237	0x3c7e5b00	0.015524626
238	0xbd3a0940	-0.045418978
239	0xbc18d7e8	-0.00932882
240	0xbcf8b9d8	-0.030362055
241	0xbce1f2fa	-0.02758168
242	0xbd99ca22	-0.07509257
243	0x3cb794f8	0.022409901
244	0x3c02c4f0	0.007981524
245	0xbd70d6a9	-0.058798466
246	0x3d76537c	0.06013821
247	0xbd60e8ea	-0.054909624
248	0xbc117a88	-0.008879311
249	0xbd8e99bb	-0.069629155
250	0xbd7eebe2	-0.062236674
251	0x3d0b8558	0.034062713
252	0x3ca04b84	0.019567259
253	0x3d5bbdb8	0.053647727
254	0x3c8ebf50	0.01742521
255	0xbd88d742	-0.06681682

fc1.bias f4 [164]
0	0x3dfed50c	0.12442979
1	0x3dfb480c	0.12269601
2	0x3dc58ba8	0.09645778
3	0x3dbe2efc	0.09286305
4	0x3dd73328	0.10507804
5	0xbe16fe32	-0.14745405
6	0xbd59a89a	-0.053139307
7	0x3e059788	0.13046086
8	0xbd93edee	-0.07223116
9	0x3c6ede70	0.0145794
10	0xbd727506	-0.059193633
11	0xbbe23660	-0.0069034547
12	0xbcf55fa8	-0.029952839
13	0xbd4cb7a6	-0.04997983
14	0x3cfd17e0	0.030895174
15	0x3e23b772	0.15987948
16	0x3b5a1d80	0.0033281744
17	0xbd4cc956	-0.049996696
18	0x3e11bb62	0.14231637
19	0xbda2ae22	-0.079433694
20	0x3d38cea0	0.045118928
21	0x3b52a100	0.003213942
22	0x3d5189a4	0.051156655
23	0x3dd0a8f4	0.10188475
24	0x3d3cd13c	0.04609798
25	0xbc4a0c20	-0.012331992
26	0x3d98dd42	0.074640766
27	0x3cceda08	0.02525045
28	0xbcf57d88	-0.029967085
29	0x3d19d4bc	0.037556395
30	0xbdb4d487	-0.08829599
31	0x3c7f8e60	0.01559791
32	0xbdd39b0e	-0.10332309
33	0x3da09288	0.078404486
34	0x3e2d0320	0.16895723
35	0xbd68371c	-0.05669318
36	0xbe1f7c0f	-0.15574668
37	0x3e12d226	0.14337978
38	0xbdb7ed95	-0.08980862
39	0x3dec0da4	0.11526039
40	0x3df71674	0.120648295
41	0xbd7afeb2	-0.061278053
42	0x3b9083a0	0.004410222
43	0xbd96fd10	-0.073724866
44	0x3e150d5e	0.1455588
45	0xbe0053d0	-0.12531972
46	0x3c9ecef8	0.0193858
47	0xbdc87ac9	-0.097890444
48	0x3e0c714a	0.13715091
49	0x3dad281c	0.08454916
50	0x3e1a0444	0.1504069
51	0xbda39e19	-0.07989139
52	0x3d7117cc	0.058860585
53	0xbe17fa97	-0.14841686
54	0x3dd3d568	0.103434384
55	0xbd6cb400	-0.05778885
56	0x3d6db550	0.05803424
57	0x3dad2a64	0.08455351
58	0xbddf92d7	-0.10916679
59	0x3dc85314	0.09781471
60	0xbd91cb11	-0.0711881
61	0x3d8976f4	0.06712142
62	0xbd737d78	-0.05944583
63	0x3bfbd3c0	0.0076851547
64	0x3c90f750	0.017696053
65	0x3e19a8bc	0.15005773
66	0x3d4bb164	0.04972972
67	0x3cf80dc0	0.030279994
68	0xbd03c0b8	-0.032166213
69	0xbe318f80	-0.17339897
70	0xbd9e76e2	-0.07737519
71	0xbd72ab34	-0.059245303
72	0x3d858df4	0.06521216
73	0xbc4ed950	-0.0126250535
74	0x3d5f5fb0	0.054534614
75	0xbdb8f0ac	-0.090302795
76	0xbe316ec9	-0.17327417
77	0x3d829e28	0.06377822
78	0x3dc07308	0.093969405
79	0x3dbc640c	0.0919877
80	0x3e13cbdc	0.14433235
81	0xbe2ddae9	-0.16978039
82	0x3d540b6c	0.051768705
83	0x3e0d8c50	0.13823056
84	0xbdb6238a	-0.08893497
85	0x3dc6bf38	0.09704441
86	0x3db850b0	0.08999765
87	0x3d17c88c	0.03705649
88	0xbe2a7ea9	-0.1664988
89	0x3da7239c	0.08161089
90	0x3e2013ee	0.15632603
91	0xbcc39240	-0.023873448
92	0x3d8e259c	0.06940767
93	0x3e07d41e	0.1326451
94	0xbe0516e3	-0.12997012
95	0xbe25d9dd	-0.1619639
96	0x3d8b0408	0.06787878
97	0xbbef5040	-0.0073032677
98	0xbda79910	-0.08183491
99	0xbe268c33	-0.1626442
100	0xbddd346c	-0.10801014
101	0x3d40ad80	0.047040462
102	0xbd032ef4	-0.0320272
103	0xbe1ae735	-0.15127261
104	0xbc9044d8	-0.017610952
105	0xbc103c40	-0.008803427
106	0xbe2655a4	-0.16243607
107	0x3dd5bc54	0.10436311
108	0x3e321a60	0.17392874
109	0x3dfcfe20	0.12353158
110	0xbe203d99	-0.15648498
111	0xbddb4e79	-0.10708327
112	0xbe0b4d27	-0.1360365
113	0x3e162772	0.14663485
114	0xbda8fa73	-0.082508944
115	0x3e04d042	0.12970069
116	0xbd945713	-0.072431706
117	0x3d8c1108	0.06839186
118	0x3dfbffb8	0.12304634
119	0xbdadc2c3	-0.084844135
120	0x3d9ccec8	0.07656628
121	0x3dae992c	0.08525309
122	0x3d23a048	0.039947778
123	0xbd86b7c4	-0.06578019
124	0xbe092e7d	-0.1339664
125	0x3d14bca8	0.03631273
126	0xbe214b9b	-0.15751497
127	0xbd6b17e4	-0.05739583
128	0x3ce6b5b8	0.028162822
129	0x3ddbea20	0.10738015
130	0x3e082f88	0.13299382
131	0xbe1582bd	-0.14600654
132	0xbd9de732	-0.07710113
133	0xbc802958	-0.015644714
134	0xbb5eeb40	-0.0034014732
135	0xbd2afa64	-0.041742697
136	0xbde20561	-0.11036182
137	0xbd1e47f4	-0.03864284
138	0xbd1469c8	-0.036233693
139	0xbdd83c13	-0.10558333
140	0x3d66ee34	0.056379512
141	0xbdffd8ce	-0.12492524
142	0xbe18ca92	-0.14921024
143	0x3d013c58	0.03155169
144	0xbdb076aa	-0.086163834
145	0x3e1cf05e	0.15326068
146	0xbde97ee2	-0.11401154
147	0xbdf2b69e	-0.11851238
148	0x3e263e84	0.16234785
149	0x3d022038	0.031769007
150	0x3e2ab6c8	0.16671288
151	0x3e1d5878	0.1536578
152	0x3e30ea56	0.17276892
153	0x3e08dcdc	0.13365501
154	0x3dd2243c	0.102608174
155	0xbdd73d0d	-0.105096914
156	0xbd494b40	-0.04914403
157	0xbc943728	-0.018092707
158	0xb92a0800	-0.00016215444
159	0x3e0b5bde	0.13609263
160	0x3d580f38	0.05274889
161	0xbe258425	-0.1616369
162	0x3d343174	0.043992475
163	0x3c235840	0.009969771

bn1.weight f4 [164]
0	0x3f39e988	0.72621965
1	0x3e929ba6	0.28634375
2	0x3f6b5bc0	0.91936874
3	0x3e164c68	0.14677584
4	0x3f641c34	0.89105535
5	0x3f72fb91	0.9491511
6	0x3dc100d8	0.09423989
7	0x3e2616a8	0.1621958
8	0x3f5427b0	0.8287306
9	0x3dd04bc0	0.10170698
10	0x3ef01a6a	0.46895152
11	0x3e5a8170	0.21338439
12	0x3f433a66	0.76260984
13	0x3f7960f5	0.9741357
14	0x3f685c8e	0.9076623
15	0x3f6e6354	0.9312031
16	0x3f46062d	0.77353173
17	0x3d92cce0	0.07167983
18	0x3f22b18f	0.6355218
19	0x3f752521	0.9575978
20	0x3f481159	0.7815147
21	0x3e3fb518	0.18721426
22	0x3f37068e	0.71494377
23	0x3f1c88f2	0.6114646
24	0x3e40ab68	0.18815386
25	0x3d7c6ec0	0.061629057
26	0x3e5fd73c	0.21859449
27	0x3de35a08	0.111011565
28	0x3eaab41a	0.33340532
29	0x3f0c11e7	0.54714817
30	0x3e7d2e68	0.24724734
31	0x3ebb9a66	0.36641234
32	0x3ea98c2e	0.3311476
33	0x3f39cddd	0.7257975
34	0x3dd49450	0.10379851
35	0x3f79ed48	0.9762769
36	0x3f7d08ef	0.98841757
37	0x3f6d4a69	0.92691666
38	0x3f61edb3	0.88253325
39	0x3ee2e83a	0.443178
40	0x3e7cce4c	0.24688071
41	0x3f787602	0.97055066
42	0x3c9d5480	0.019205332
43	0x3cb132c0	0.021630645
44	0x3f68c938	0.90932035
45	0x3e9caac4	0.30599034
46	0x3f54c3de	0.8311137
47	0x3e59e2e8	0.21277964
48	0x3e244854	0.16043216
49	0x3e130488	0.14357197
50	0x3ef864ca	0.48514396
51	0x3efc4f4e	0.49279255
52	0x3ea19f6c	0.31566942
53	0x3f1a399c	0.60244155
54	0x3f4b798b	0.79482335
55	0x3e8ae6dc	0.27129257
56	0x3f49a03b	0.7876012
57	0x3e9fb404	0.3119203
58	0x3f2605ff	0.648529
59	0x3eac0d06	0.33603686
60	0x3e6e7d58	0.23290002
61	0x3f7bce0a	0.98361266
62	0x3e30686c	0.17227334
63	0x3f1ebc81	0.62006384
64	0x3cd007a0	0.02539426
65	0x3f43f3c6	0.76543844
66	0x3f54c0eb	0.8310687
67	0x3cca3180	0.024681807
68	0x3e2de278	0.16980922
69	0x3c9d9860	0.019237697
70	0x3f1f7be8	0.6229844
71	0x3d334cf0	0.043774545
72	0x3f3369ed	0.70083505
73	0x3f799ebd	0.9750784
74	0x3ee12d72	0.43979985
75	0x3f3ec47e	0.74518573
76	0x3dd2fc38	0.10302013
77	0x3f2848aa	0.65735877
78	0x3ee0f106	0.43933886
79	0x3f49ed35	0.78877574
80	0x3f7f84d9	0.99812084
81	0x3e0c5630	0.13704753
82	0x3eda94c6	0.4269163
83	0x3e4b57c8	0.19857705
84	0x3f33acca	0.7018553
85	0x3f72db4b	0.94865865
86	0x3ed92eec	0.4241861
87	0x3f729be5	0.94769126
88	0x3f580fbb	0.84399
89	0x3eddfaee	0.43355507
90	0x3f45d3a2	0.7727605
91	0x3f6b8745	0.9200328
92	0x3f091532	0.53547966
93	0x3da2ef08	0.07955748
94	0x3f22c4dc	0.63581634
95	0x3d56d150	0.05244571
96	0x3f0719d5	0.5277379
97	0x3e29d5bc	0.1658544
98	0x3f76e64b	0.9644515
99	0x3e5792ac	0.21052045
100	0x3e88fa06	0.26753253
101	0x3f543c54	0.82904553
102	0x3e34c418	0.17652929
103	0x3f7d3876	0.9891428
104	0x3f145981	0.5794907
105	0x3f432941	0.76234823
106	0x3e4e9180	0.20172691
107	0x3ef6cb24	0.4820186
108	0x3f3addb5	0.7299455
109	0x3f404207	0.7510075
110	0x3eec04e0	0.4609747
111	0x3f703d46	0.93843496
112	0x3f379bae	0.71721923
113	0x3eb719d6	0.357619
114	0x3c679900	0.014135599
115	0x3f67ce19	0.90548855
116	0x3f5fddec	0.87448
117	0x3e698fc0	0.22808743
118	0x3f061a70	0.5238409
119	0x3f3bbea2	0.7333776
120	0x3f6106fb	0.87901276
121	0x3e9bfa6e	0.304645
122	0x3f38cac7	0.72184414
123	0x3e5c6fe4	0.21527058
124	0x3f0ad370	0.5422888
125	0x3eca197e	0.39472574
126	0x3f19e7de	0.60119426
127	0x3f481d8b	0.7817008
128	0x3ef98118	0.48731303
129	0x3f61b231	0.88162524
130	0x3e9ce89e	0.30646223
131	0x3e5c770c	0.21529788
132	0x3f6974fe	0.9119414
133	0x3f0339b6	0.51259935
134	0x3eb8988a	0.36053878
135	0x3f202bd1	0.6256686
136	0x3f1ea5a9	0.6197153
137	0x3ed7d53e	0.42154878
138	0x3e76e348	0.24110138
139	0x3e7c0a84	0.24613386
140	0x3ed09592	0.40739113
141	0x3f0eaa89	0.55728966
142	0x3d206d80	0.039166927
143	0x3f6331e8	0.88748026
144	0x3effbb94	0.49947798
145	0x3effd2be	0.4996547
146	0x3f1d7e67	0.61521
147	0x3f13e001	0.5776368
148	0x3f1efd13	0.6210491
149	0x3eff4a16	0.4986121
150	0x3ee27e90	0.44237185
151	0x3e2b06a4	0.16701752
152	0x3f3c5517	0.73567337
153	0x3f75d8ea	0.9603411
154	0x3f536023	0.8256857
155	0x3d0343a0	0.032046914
156	0x3f56631d	0.83744985
157	0x3f2a4c8e	0.66523063
158	0x3d432e60	0.04765165
159	0x3f771b01	0.9652558
160	0x3f67e331	0.9058104
161	0x3f71db5e	0.9447535
162	0x3d762a70	0.060099065
163	0x3eb48be2	0.35262972

bn1.bias f4 [164]
0	0x00000000	0.0
1	0x00000000	0.0
2	0x00000000	0.0
3	0x00000000	0.0
4	0x00000000	0.0
5	0x00000000	0.0
6	0x00000000	0.0
7	0x00000000	0.0
8	0x00000000	0.0
9	0x00000000	0.0
10	0x00000000	0.0
11	0x00000000	0.0
12	0x00000000	0.0
13	0x00000000	0.0
14	0x00000000	0.0
15	0x00000000	0.0
16	0x00000000	0.0
17	0x00000000	0.0
18	0x00000000	0.0
19	0x00000000	0.0
20	0x00000000	0.0
21	0x00000000	0.0
22	0x00000000	0.0
23	0x00000000	0.0
24	0x00000000	0.0
25	0x00000000	0.0
26	0x00000000	0.0
27	0x00000000	0.0
28	0x00000000	0.0
29	0x00000000	0.0
30	0x00000000	0.0
31	0x00000000	0.0
32	0x00000000	0.0
33	0x00000000	0.0
34	0x00000000	0.0
35	0x00000000	0.0
36	0x00000000	0.0
37	0x00000000	0.0
38	0x00000000	0.0
39	0x00000000	0.0
40	0x00000000	0.0
41	0x00000000	0.0
42	0x00000000	0.0
43	0x00000000	0.0
44	0x00000000	0.0
45	0x00000000	0.0
46	0x00000000	0.0
47	0x00000000	0.0
48	0x00000000	0.0
49	0x00000000	0.0
50	0x00000000	0.0
51	0x00000000	0.0
52	0x00000000	0.0
53	0x00000000	0.0
54	0x00000000	0.0
55	0x00000000	0.0
56	0x00000000	0.0
57	0x00000000	0.0
58	0x00000000	0.0
59	0x00000000	0.0
60	0x00000000	0.0
61	0x00000000	0.0
62	0x00000000	0.0
63	0x00000000	0.0
64	0x00000000	0.0
65	0x00000000	0.0
66	0x00000000	0.0
67	0x00000000	0.0
68	0x00000000	0.0
69	0x00000000	0.0
70	0x00000000	0.0
71	0x00000000	0.0
72	0x00000000	0.0
73	0x00000000	0.0
74	0x00000000	0.0
75	0x00000000	0.0
76	0x00000000	0.0
77	0x00000000	0.0
78	0x00000000	0.0
79	0x00000000	0.0
80	0x00000000	0.0
81	0x00000000	0.0
82	0x00000000	0.0
83	0x00000000	0.0
84	0x00000000	0.0
85	0x00000000	0.0
86	0x00000000	0.0
87	0x00000000	0.0
88	0x00000000	0.0
89	0x00000000	0.0
90	0x00000000	0.0
91	0x00000000	0.0
92	0x00000000	0.0
93	0x00000000	0.0
94	0x00000000	0.0
95	0x00000000	0.0
96	0x00000000	0.0
97	0x00000000	0.0
98	0x00000000	0.0
99	0x00000000	0.0
100	0x00000000	0.0
101	0x00000000	0.0
102	0x00000000	0.0
103	0x00000000	0.0
104	0x00000000	0.0
105	0x00000000	0.0
106	0x00000000	0.0
107	0x00000000	0.0
108	0x00000000	0.0
109	0x00000000	0.0
110	0x00000000	0.0
111	0x00000000	0.0
112	0x00000000	0.0
113	0x00000000	0.0
114	0x00000000	0.0
115	0x00000000	0.0
116	0x00000000	0.0
117	0x00000000	0.0
118	0x00000000	0.0
119	0x00000000	0.0
120	0x00000000	0.0
121	0x00000000	0.0
122	0x00000000	0.0
123	0x00000000	0.0
124	0x00000000	0.0
125	0x00000000	0.0
126	0x00000000	0.0
127	0x00000000	0.0
128	0x00000000	0.0
129	0x00000000	0.0
130	0x00000000	0.0
131	0x00000000	0.0
132	0x00000000	0.0
133	0x00000000	0.0
134	0x00000000	0.0
135	0x00000000	0.0
136	0x00000000	0.0
137	0x00000000	0.0
138	0x00000000	0.0
139	0x00000000	0.0
140	0x00000000	0.0
141	0x00000000	0.0
142	0x00000000	0.0
143	0x00000000	0.0
144	0x00000000	0.0
145	0x00000000	0.0
146	0x00000000	0.0
147	0x00000000	0.0
148	0x00000000	0.0
149	0x00000000	0.0
150	0x00000000	0.0
151	0x00000000	0.0
152	0x00000000	0.0
153	0x00000000	0.0
154	0x00000000	0.0
155	0x00000000	0.0
156	0x00000000	0.0
157	0x00000000	0.0
158	0x00000000	0.0
159	0x00000000	0.0
160	0x00000000	0.0
161	0x00000000	0.0
162	0x00000000	0.0
163	0x00000000	0.0

bn1.running_mean f4 [164]
0	0x00000000	0.0
1	0x00000000	0.0
2	0x00000000	0.0
3	0x00000000	0.0
4	0x00000000	0.0
5	0x00000000	0.0
6	0x00000000	0.0
7	0x00000000	0.0
8	0x00000000	0.0
9	0x00000000	0.0
10	0x00000000	0.0
11	0x00000000	0.0
12	0x00000000	0.0
13	0x00000000	0.0
14	0x00000000	0.0
15	0x00000000	0.0
16	0x00000000	0.0
17	0x00000000	0.0
18	0x00000000	0.0
19	0x00000000	0.0
20	0x00000000	0.0
21	0x00000000	0.0
22	0x00000000	0.0
23	0x00000000	0.0
24	0x00000000	0.0
25	0x00000000	0.0
26	0x00000000	0.0
27	0x00000000	0.0
28	0x00000000	0.0
29	0x00000000	0.0
30	0x00000000	0.0
31	0x00000000	0.0
32	0x00000000	0.0
33	0x00000000	0.0
34	0x00000000	0.0
35	0x00000000	0.0
36	0x00000000	0.0
37	0x00000000	0.0
38	0x00000000	0.0
39	0x00000000	0.0
40	0x00000000	0.0
41	0x00000000	0.0
42	0x00000000	0.0
43	0x00000000	0.0
44	0x00000000	0.0
45	0x00000000	0.0
46	0x00000000	0.0
47	0x00000000	0.0
48	0x00000000	0.0
49	0x00000000	0.0
50	0x00000000	0.0
51	0x00000000	0.0
52	0x00000000	0.0
53	0x00000000	0.0
54	0x00000000	0.0
55	0x00000000	0.0
56	0x00000000	0.0
57	0x00000000	0.0
58	0x00000000	0.0
59	0x00000000	0.0
60	0x00000000	0.0
61	0x00000000	0.0
62	0x00000000	0.0
63	0x00000000	0.0
64	0x00000000	0.0
65	0x00000000	0.0
66	0x00000000	0.0
67	0x00000000	0.0
68	0x00000000	0.0
69	0x00000000	0.0
70	0x00000000	0.0
71	0x00000000	0.0
72	0x00000000	0.0
73	0x00000000	0.0
74	0x00000000	0.0
75	0x00000000	0.0
76	0x00000000	0.0
77	0x00000000	0.0
78	0x00000000	0.0
79	0x00000000	0.0
80	0x00000000	0.0
81	0x00000000	0.0
82	0x00000000	0.0
83	0x00000000	0.0
84	0x00000000	0.0
85	0x00000000	0.0
86	0x00000000	0.0
87	0x00000000	0.0
88	0x00000000	0.0
89	0x00000000	0.0
90	0x00000000	0.0
91	0x00000000	0.0
92	0x00000000	0.0
93	0x00000000	0.0
94	0x00000000	0.0
95	0x00000000	0.0
96	0x00000000	0.0
97	0x00000000	0.0
98	0x00000000	0.0
99	0x00000000	0.0
100	0x00000000	0.0
101	0x00000000	0.0
102	0x00000000	0.0
103	0x00000000	0.0
104	0x00000000	0.0
105	0x00000000	0.0
106	0x00000000	0.0
107	0x00000000	0.0
108	0x00000000	0.0
109	0x00000000	0.0
110	0x00000000	0.0
111	0x00000000	0.0
112	0x00000000	0.0
113	0x00000000	0.0
114	0x00000000	0.0
115	0x00000000	0.0
116	0x00000000	0.0
117	0x00000000	0.0
118	0x00000000	0.0
119	0x00000000	0.0
120	0x00000000	0.0
121	0x00000000	0.0
122	0x00000000	0.0
123	0x00000000	0.0
124	0x00000000	0.0
125	0x00000000	0.0
126	0x00000000	0.0
127	0x00000000	0.0
128	0x00000000	0.0
129	0x00000000	0.0
130	0x00000000	0.0
131	0x00000000	0.0
132	0x00000000	0.0
133	0x00000000	0.0
134	0x00000000	0.0
135	0x00000000	0.0
136	0x00000000	0.0
137	0x00000000	0.0
138	0x00000000	0.0
139	0x00000000	0.0
140	0x00000000	0.0
141	0x00000000	0.0
142	0x00000000	0.0
143	0x00000000	0.0
144	0x00000000	0.0
145	0x00000000	0.0
146	0x00000000	0.0
147	0x00000000	0.0
148	0x00000000	0.0
149	0x00000000	0.0
150	0x00000000	0.0
151	0x00000000	0.0
152	0x00000000	0.0
153	0x00000000	0.0
154	0x00000000	0.0
155	0x00000000	0.0
156	0x00000000	0.0
157	0x00000000	0.0
158	0x00000000	0.0
159	0x00000000	0.0
160	0x00000000	0.0
161	0x00000000	0.0
162	0x00000000	0.0
163	0x00000000	0.0

bn1.running_var f4 [164]
0	0x3f800000	1.0
1	0x3f800000	1.0
2	0x3f800000	1.0
3	0x3f800000	1.0
4	0x3f800000	1.0
5	0x3f800000	1.0
6	0x3f800000	1.0
7	0x3f800000	1.0
8	0x3f800000	1.0
9	0x3f800000	1.0
10	0x3f800000	1.0
11	0x3f800000	1.0
12	0x3f800000	1.0
13	0x3f800000	1.0
14	0x3f800000	1.0
15	0x3f800000	1.0
16	0x3f800000	1.0
17	0x3f800000	1.0
18	0x3f800000	1.0
19	0x3f800000	1.0
20	0x3f800000	1.0
21	0x3f800000	1.0
22	0x3f800000	1.0
23	0x3f800000	1.0
24	0x3f800000	1.0
25	0x3f800000	1.0
26	0x3f800000	1.0
27	0x3f800000	1.0
28	0x3f800000	1.0
29	0x3f800000	1.0
30	0x3f800000	1.0
31	0x3f800000	1.0
32	0x3f800000	1.0
33	0x3f800000	1.0
34	0x3f800000	1.0
35	0x3f800000	1.0
36	0x3f800000	1.0
37	0x3f800000	1.0
38	0x3f800000	1.0
39	0x3f800000	1.0
40	0x3f800000	1.0
41	0x3f800000	1.0
42	0x3f800000	1.0
43	0x3f800000	1.0
44	0x3f800000	1.0
45	0x3f800000	1.0
46	0x3f800000	1.0
47	0x3f800000	1.0
48	0x3f800000	1.0
49	0x3f800000	1.0
50	0x3f800000	1.0
51	0x3f800000	1.0
52	0x3f800000	1.0
53	0x3f800000	1.0
54	0x3f800000	1.0
55	0x3f800000	1.0
56	0x3f800000	1.0
57	0x3f800000	1.0
58	0x3f800000	1.0
59	0x3f800000	1.0
60	0x3f800000	1.0
61	0x3f800000	1.0
62	0x3f800000	1.0
63	0x3f800000	1.0
64	0x3f800000	1.0
65	0x3f800000	1.0
66	0x3f800000	1.0
67	0x3f800000	1.0
68	0x3f800000	1.0
69	0x3f800000	1.0
70	0x3f800000	1.0
71	0x3f800000	1.0
72	0x3f800000	1.0
73	0x3f800000	1.0
74	0x3f800000	1.0
75	0x3f800000	1.0
76	0x3f800000	1.0
77	0x3f800000	1.0
78	0x3f800000	1.0
79	0x3f800000	1.0
80	0x3f800000	1.0
81	0x3f800000	1.0
82	0x3f800000	1.0
83	0x3f800000	1.0
84	0x3f800000	1.0
85	0x3f800000	1.0
86	0x3f800000	1.0
87	0x3f800000	1.0
88	0x3f800000	1.0
89	0x3f800000	1.0
90	0x3f800000	1.0
91	0x3f800000	1.0
92	0x3f800000	1.0
93	0x3f800000	1.0
94	0x3f800000	1.0
95	0x3f800000	1.0
96	0x3f800000	1.0
97	0x3f800000	1.0
98	0x3f800000	1.0
99	0x3f800000	1.0
100	0x3f800000	1.0
101	0x3f800000	1.0
102	0x3f800000	1.0
103	0x3f800000	1.0
104	0x3f800000	1.0
105	0x3f800000	1.0
106	0x3f800000	1.0
107	0x3f800000	1.0
108	0x3f800000	1.0
109	0x3f800000	1.0
110	0x3f800000	1.0
111	0x3f800000	1.0
112	0x3f800000	1.0
113	0x3f800000	1.0
114	0x3f800000	1.0
115	0x3f800000	1.0
116	0x3f800000	1.0
117	0x3f800000	1.0
118	0x3f800000	1.0
119	0x3f800000	1.0
120	0x3f800000	1.0
121	0x3f800000	1.0
122	0x3f800000	1.0
123	0x3f800000	1.0
124	0x3f800000	1.0
125	0x3f800000	1.0
126	0x3f800000	1.0
127	0x3f800000	1.0
128	0x3f800000	1.0
129	0x3f800000	1.0
130	0x3f800000	1.0
131	0x3f800000	1.0
132	0x3f800000	1.0
133	0x3f800000	1.0
134	0x3f800000	1.0
135	0x3f800000	1.0
136	0x3f800000	1.0
137	0x3f800000	1.0
138	0x3f800000	1.0
139	0x3f800000	1.0
140	0x3f800000	1.0
141	0x3f800000	1.0
142	0x3f800000	1.0
143	0x3f800000	1.0
144	0x3f800000	1.0
145	0x3f800000	1.0
146	0x3f800000	1.0
147	0x3f800000	1.0
148	0x3f800000	1.0
149	0x3f800000	1.0
150	0x3f800000	1.0
151	0x3f800000	1.0
152	0x3f800000	1.0
153	0x3f800000	1.0
154	0x3f800000	1.0
155	0x3f800000	1.0
156	0x3f800000	1.0
157	0x3f800000	1.0
158	0x3f800000	1.0
159	0x3f800000	1.0
160	0x3f800000	1.0
161	0x3f800000	1.0
162	0x3f800000	1.0
163	0x3f800000	1.0

fc2.weight f4 [164, 164]
0	0xbcb98f10	-0.022651225
1	0x3d00be88	0.031431705
2	0x3bdf3080	0.0068112016
3	0x3c913268	0.01772423
4	0xbc6aa508	-0.014321573
5	0x3d7f8e18	0.06239137
6	0x39eae800	0.00044804811
7	0x3c6cfa98	0.014464043
8	0x3d2f9c2c	0.042873546
9	0x3d95c292	0.07312502
10	0x3d7cdc4c	0.06173353
11	0xbced1c0e	-0.028944042
12	0xbce87798	-0.02837734
13	0xbd248401	-0.04016495
14	0xbd983059	-0.074310966
15	0x3d0db9b6	0.034600936
16	0x3cabea14	0.02098564
17	0x3c603ad8	0.013685904
18	0x3c9570a8	0.018242195
19	0x3c477810	0.012174621
20	0x3cccccec	0.025000058
21	0xbc96c36a	-0.018403728
22	0x3d412e78	0.047163457
23	0x3d95daca	0.07317121
24	0xbd78a152	-0.060700722
25	0xbd27a80e	-0.040931754
26	0xbd0e79c5	-0.034784097
27	0xbc2aaf00	-0.0104177
28	0xbd3cc71f	-0.046088334
29	0x3d7fed8c	0.0624824
30	0xba46ee00	-0.00075885653
31	0x3cb8e9d8	0.022572443
32	0xbd4f2f38	-0.05058214
33	0x3d2356ba	0.03987763
34	0xbd337119	-0.04380903
35	0x3d841ff6	0.064514086
36	0xbd4c0614	-0.049810484
37	0xbd80fdde	-0.06298421
38	0x3d91f50a	0.071268156
39	0x3c4db7a8	0.012555994
40	0xbb4aada0	-0.0030926242
41	0x3c1a0ac0	0.009401977
42	0xbd8a014b	-0.06738528
43	0xbd0d5bad	-0.034511257
44	0xbd70b60a	-0.058767356
45	0xbcba91c8	-0.022774592
46	0x3cd711d0	0.02625361
47	0xbd184a00	-0.037179947
48	0xbd4147f3	-0.047187757
49	0xbd69a988	-0.057046443
50	0xbc6dbf08	-0.014510877
51	0xbd81bf02	-0.0633526
52	0xbc15c2a8	-0.009140648
53	0xbd9c5eef	-0.07635295
54	0x3d81e77a	0.06342979
55	0xbbaa2a50	-0.0051930323
56	0x3c31c890	0.0108510405
57	0xbd32c837	-0.04364797
58	0x3d549a08	0.05190471
59	0xbd548326	-0.051882885
60	0xbc11cea8	-0.008899368
61	0x3ccb610c	0.024826549
62	0x3bda15a0	0.00665541
63	0x3d8fa484	0.07013801
64	0xbc151eb0	-0.009101555
65	0xbd9dd8f4	-0.07707396
66	0x3d873688	0.06602198
67	0x3d453fc8	0.04815653
68	0xbc5563b8	-0.013024263
69	0xbc831320	-0.01600033
70	0xbc619c60	-0.013770193
71	0xbd3b9c05	-0.04580309
72	0xbd905c88	-0.07048899
73	0x3d45cf9c	0.048293695
74	0xbcfc9608	-0.03083326
75	0xbd457241	-0.048204664
76	0x3d8390b2	0.06424083
77	0x3ce5405c	0.02798479
78	0xbd10ad14	-0.03532131
79	0x3d348636	0.044073306
80	0xbce33fd8	-0.027740404
81	0x3d31b494	0.043385103
82	0x3d016192	0.03158719
83	0x3d9f9a98	0.07793158
84	0x3d7305c4	0.05933167
85	0xbcc3eb4e	-0.023915913
86	0x3c84db68	0.016217902
87	0xbd1221ce	-0.03567677
88	0x3d615c1c	0.055019483
89	0x3d9880b6	0.07446425
90	0xbd669ba5	-0.056300778
91	0x3cca2bc4	0.024679072
92	0xbc42ba58	-0.011885248
93	0x3bc28a80	0.0059369206
94	0x3d84d3c0	0.064857006
95	0x3c94c7c0	0.018161654
96	0xbd87f11a	-0.06637783
97	0xbcc69db0	-0.024245113
98	0x3d32bdac	0.043637916
99	0x3c8ddb28	0.017316416
100	0xbd48e6b7	-0.04904815
101	0xbc5a6138	-0.013328843
102	0xbd1ec8fc	-0.038765892
103	0xbc885570	-0.016642302
104	0x3d793ae4	0.060847178
105	0x3d5cf6ac	0.053946182
106	0x3cd3fd88	0.025877729
107	0xbd5978ce	-0.053093724
108	0x3d1648ec	0.036690637
109	0x3cb8a788	0.022540823
110	0xbc083808	-0.00831414
111	0xbd0e8ca8	-0.03480211
112	0xbd8863a2	-0.066596285
113	0x3d96daac	0.07365927
114	0xbd036505	-0.03207876
115	0x3cf3940c	0.02973368
116	0xbc1b6668	-0.009484865
117	0x3cebc688	0.02878119
118	0x3b91f610	0.0044543818
119	0x3d2120f0	0.039338052
120	0xba94efc0	-0.0011362955
121	0x3d83d74c	0.06437549
122	0x3c766518	0.015038751
123	0x3c303df0	0.010756955
124	0x3d545600	0.05183983
125	0x3cdf61d4	0.027268328
126	0xbd6ccdce	-0.05781346
127	0xbd99af6a	-0.07504161
128	0xbd774506	-0.06036856
129	0x3d6d4d74	0.057935193
130	0x3cb73b34	0.022367097
131	0x3d6d3294	0.057909563
132	0xbd8b7708	-0.06809813
133	0x3d0ca2de	0.03433501
134	0x3c6fc928	0.014635362
135	0x3abc9780	0.0014388412
136	0x3d426c38	0.047466487
137	0x3d8320ea	0.06402762
138	0xbcc475d0	-0.023981959
139	0x3c842e6c	0.016135417
140	0x3c1b48c0	0.009477794
141	0xbd89e0cc	-0.0673233
142	0xbbc952e0	-0.0061439127
143	0xbd82404a	-0.063599184
144	0x3d7e0aa4	0.062021866
145	0xbc83876a	-0.016055781
146	0xbb860dc0	-0.0040909946
147	0x3d9de84c	0.07710323
148	0x3c64ddf8	0.013968937
149	0x3d1488e8	0.036263376
150	0xbd8b0e00	-0.0678978
151	0xbd823303	-0.06357386
152	0x3d269018	0.040664762
153	0x3d10ca96	0.03534945
154	0xbd916a42	-0.07100345
155	0x3d6feba0	0.05857432
156	0xbc918a0c	-0.017766021
157	0x3d4b55d8	0.049642414
158	0x3d9acb16	0.07558267
159	0xbd7b20b8	-0.0613105
160	0x3c0a1548	0.008427925
161	0xbd9001a4	-0.07031563
162	0xbd162cc0	-0.03666377
163	0xbcdeef8a	-0.02721383
164	0xbd01ab7c	-0.03165768
165	0x3d43efe8	0.047836214
166	0x3cbfc994	0.02341155
167	0x3d1b94aa	0.037983574
168	0x3d0dadfe	0.03458976
169	0x3cb09cc0	0.02155912
170	0x3ceb3e98	0.02871637
171	0xbcfaafce	-0.030601408
172	0x3d78c7ec	0.060737535
173	0x3c8e47e8	0.017368272
174	0xbc8f0646	-0.017459046
175	0x3a48ec00	0.0007664561
176	0xbcb90380	-0.022584677
177	0x3c6b6898	0.014368199
178	0x3d8b1e50	0.06792891
179	0xbd817ff1	-0.06323231
180	0xbd888ef0	-0.06667888
181	0xbd060664	-0.03272094
182	0x3ad8e380	0.0016547292
183	0x3d685d50	0.056729615
184	0x3d41ebec	0.047344133
185	0x3d8ede06	0.06975941
186	0x3ce11ae8	0.02747865
187	0xbd6aebfd	-0.057353962
188	0x3d955c84	0.072930366
189	0x3d87d8e8	0.066331685
190	0x3d9f8bae	0.07790314
191	0x3d348f8c	0.04408221
192	0xbc6d4008	-0.014480598
193	0x3ccc592c	0.024944864
194	0xbbb8de60	-0.0056417435
195	0xbd9585ac	-0.073008865
196	0x3b957ea0	0.004562214
197	0x3d824a70	0.06361854
198	0x3c5af470	0.0133639425
199	0xb9b66900	-0.00034791976
200	0x3be7ab20	0.0070699602
201	0x3d52f4b0	0.051502883
202	0x3d52620c	0.051363036
203	0x3b637f80	0.0034713447
204	0xbd91a679	-0.0711183
205	0xbd9a3cfc	-0.07531163
206	0xbd398eac	-0.045302078
207	0x3d1aaeda	0.037764408
208	0xbd01b60c	-0.031667754
209	0x3d85a6ec	0.065259784
210	0x3a4b8580	0.00077637285
211	0x3c65ca50	0.014025286
212	0xbd6a2066	-0.057159804
213	0xbd2caede	-0.042158954
214	0x3ce63b8c	0.028104566
215	0x3be073d0	0.0068497434
216	0xbd76a0c7	-0.060211923
217	0xbd012e64	-0.031538382
218	0x3d982b68	0.07430154
219	0x3d667740	0.05626607
220	0xba47b980	-0.0007618889
221	0xbd700484	-0.058598056
222	0x3c0213b0	0.007939264
223	0xbc50fb78	-0.012755267
224	0xbc3e6ef0	-0.011623129
225	0xbca9242c	-0.02064713
226	0x3d2f0d5c	0.04273735
227	0xbcdc230c	-0.02687218
228	0x3d3d95f2	0.046285577
229	0xbd832350	-0.0640322
230	0x3d8f9cc8	0.070123255
231	0xbc5e0290	-0.013550416
232	0xbc9e1b2a	-0.019300062
233	0xbd97d66f	-0.07413947
234	0xbd9e66a6	-0.077344224
235	0xbd892ae8	-0.06697637
236	0xbcdc1770	-0.026866645
237	0x3d171cf2	0.03689284
238	0x3d9557ba	0.07292123
239	0xbd4efd11	-0.05053431
240	0x3caacfe0	0.020851076
241	0x39866700	0.00025635213
242	0xbd372556	-0.04471334
243	0xbd3e7c8c	-0.046505496
244	0xbd907bee	-0.07054888
245	0xbd5cda25	-0.053918976
246	0x3d8aaea6	0.06771593
247	0xbd71e3c7	-0.059055116
248	0xbd46b43f	-0.04851174
249	0x3d818cb0	0.06325662
250	0xbd9400a2	-0.07226683
251	0xbc819ff6	-0.015823346
252	0xbd33300d	-0.043746997
253	0xbd8eae47	-0.069668345
254	0x3d10dec8	0.03536871
255	0x3d4b583c	0.049644694

fc2.bias f4 [164]
0	0xbd87d3fb	-0.06632229
1	0x3d8ef810	0.06980908
2	0xbc8906b8	-0.016726837
3	0xbd8c3999	-0.068469234
4	0x3c25d550	0.010121658
5	0xbc281508	-0.0102589205
6	0x3d607978	0.05480334
7	0x3c2eb938	0.010664277
8	0xbc774ed0	-0.015094474
9	0xbd552b39	-0.052043173
10	0x3a87fbc0	0.001037471
11	0x3cd07d80	0.025450468
12	0xbcbfece4	-0.023428388
13	0x3cabb89c	0.020962052
14	0xbd1ee1fc	-0.038789734
15	0xbd14bbb6	-0.036311828
16	0xbd76622c	-0.060152218
17	0xbd9a3000	-0.075286865
18	0x3b726ac0	0.0036989897
19	0x3d466900	0.04843998
20	0xbcef4fb6	-0.029212814
21	0x3d5fcdb0	0.05463952
22	0x3cd037d4	0.025417246
23	0x3c7e4ab8	0.015520744
24	0x3cb42914	0.021992244
25	0x3d42a2e0	0.04751861
26	0xbd866b1d	-0.06563399
27	0x3d965ca0	0.073418856
28	0xbcc59a7a	-0.024121512
29	0xbd9a5a8f	-0.07536804
30	0xbd66cfd4	-0.056350544
31	0x3d1d4acc	0.03840141
32	0xbc9a035c	-0.01880043
33	0x3d408d7c	0.04700993
34	0xbd30fef8	-0.043211907
35	0x3d8337fc	0.064071625
36	0x3d9dabdc	0.07698795
37	0xbd82e2bd	-0.06390903
38	0x3d961c54	0.07329622
39	0x3b195300	0.002339542
40	0x3d5a3a64	0.053278342
41	0x3d01fa4e	0.03173285
42	0x3d4bf608	0.04979518
43	0xbca75416	-0.020425837
44	0x3d80f264	0.06296232
45	0x3d4abbec	0.049495623
46	0xbbd2ef10	-0.00643719
47	0x3d91eb6a	0.0712498
48	0x3d3e860e	0.046514563
49	0xbc2c7f88	-0.010528453
50	0x3cc5462c	0.024081312
51	0xbc8ea53c	-0.017412774
52	0x3d21e0cc	0.039521024
53	0xbd5efef5	-0.054442365
54	0xbc45ab70	-0.0120648
55	0xbb9492a0	-0.0045340806
56	0xbb01fb20	-0.001983352
57	0xbbce8c00	-0.0063033104
58	0xbd345da7	-0.044034626
59	0xb98e1a00	-0.00027103722
60	0x3d83d676	0.064373896
61	0xbd6c093e	-0.057626
62	0x3bf792c0	0.0075553358
63	0x3d902b26	0.0703948
64	0x3d1d412a	0.038392223
65	0x3d8dfb98	0.06932753
66	0xbc8815e6	-0.016612004
67	0xbcf17b82	-0.029477838
68	0xbbd906c0	-0.006623119
69	0xbd49bc19	-0.04925165
70	0xbd89a4de	-0.06720899
71	0xbd109f69	-0.035308275
72	0x3beb09f0	0.0071728155
73	0x3d6db1f0	0.058031023
74	0x3d6a5938	0.057213992
75	0x3c195950	0.009359673
76	0x3b930db0	0.0044877157
77	0xbd9847ae	-0.07435547
78	0x3ca9318c	0.020653509
79	0xbd9fac2f	-0.07796513
80	0xbcb56e64	-0.022147365
81	0xbd5702f4	-0.05249305
82	0xbd928f47	-0.07156234
83	0x3b468040	0.0030288845
84	0x3b486800	0.0030579567
85	0xbd05e368	-0.032687575
86	0xbd941bb0	-0.072318435
87	0xbcc06b0a	-0.02348854
88	0x3ca32264	0.01991386
89	0x3d9e67a4	0.07734612
90	0x3d0488d6	0.03235706
91	0xbc9cd400	-0.019144058
92	0xbcfdee9c	-0.030997567
93	0xbd5ecbc6	-0.054393552
94	0x3b9ac760	0.0047234744
95	0xbce6f960	-0.028195083
96	0xbb112740	-0.002214864
97	0xbd321d93	-0.043485235
98	0x3d1afed6	0.037840687
99	0x3d003838	0.031303614
100	0x3d15bca0	0.03655684
101	0xbd60b226	-0.054857396
102	0x3d54523c	0.051836237
103	0x3d56487c	0.05231522
104	0xbd905e04	-0.07049182
105	0xbbc78940	-0.0060893595
106	0x3d8b7f9e	0.068114504
107	0x3d917616	0.07102601
108	0xbc3dccf8	-0.011584513
109	0x3d08e1ec	0.03341858
110	0x3c9c9514	0.019114055
111	0x3cb82f10	0.022483379
112	0xbc514968	-0.012773849
113	0x3d1fa9b0	0.038980186
114	0xbd05db8d	-0.032680083
115	0x3d448788	0.047980815
116	0xbd822e97	-0.063565426
117	0x3d65ca14	0.05610092
118	0x3d256670	0.040380895
119	0x3c4f55d8	0.012654744
120	0x3d5d2620	0.053991437
121	0xbd8159b8	-0.063159406
122	0xbd8fccaf	-0.07021462
123	0x3d9f641a	0.07782765
124	0x3b22bfa0	0.0024833456
125	0xbd96492e	-0.07338177
126	0xbc3bc460	-0.011460394
127	0x3d722000	0.05911255
128	0x3bb69190	0.0055715516
129	0x3d08a884	0.033363834
130	0xbd7127aa	-0.058875717
131	0xbb834c90	-0.0040069297
132	0x3cae10b0	0.021248192
133	0x3d0fecfa	0.035138108
134	0xbca69218	-0.020333335
135	0x3c9eb164	0.019371696
136	0x3ccd1228	0.025033072
137	0x3c7b92f0	0.015354857
138	0xbd96713f	-0.07345819
139	0x3ce1ac2c	0.027547918
140	0xbd822fc6	-0.06356768
141	0xbd279100	-0.040909767
142	0xbd13c747	-0.036078718
143	0x3d8e4464	0.06946638
144	0xbd61b178	-0.055100888
145	0xbc20b7e0	-0.009809464
146	0xbd8de3c8	-0.069282115
147	0x3d81bf1a	0.06335278
148	0xbbf5e310	-0.0075038746
149	0x3d9388fa	0.072038606
150	0xbd01c601	-0.031682972
151	0xbc334c98	-0.010943554
152	0xbd59b114	-0.05314739
153	0x3c16df80	0.00920856
154	0xbd092289	-0.0334802
155	0x3b96a960	0.004597828
156	0x3d31ace4	0.043377772
157	0xbd5ffc4d	-0.054683972
158	0x3d496934	0.049172595
159	0x3d09096a	0.033456244
160	0x3c57f6e8	0.013181426
161	0x3d8b4640	0.068005085
162	0x3d6b3a60	0.057428718
163	0xbaf67400	-0.0018802881

fc3.weight f4 [4, 164]
0	0xbb2fe2fa	-0.002683817
1	0x38a3c7c0	7.809652e-05
2	0xba1cf0e8	-0.00059868256
3	0x3b0be054	0.0021343427
4	0x3af55f94	0.0018720501
5	0x3a670c20	0.00088137574
6	0xbadc32f6	-0.0016799856
7	0xba0e3038	-0.0005424055
8	0xbb1fa8a8	-0.0024362002
9	0xb9906430	-0.00027540466
10	0x3b1ecbac	0.0024230285
11	0x39c9e490	0.00038508
12	0x3b12b872	0.002238777
13	0xba66885c	-0.0008794123
14	0x3b28669a	0.002569592
15	0xbb07d397	-0.0020725483
16	0xba81d362	-0.0009904916
17	0x3b311df0	0.00270259
18	0xbad9097d	-0.0016558614
19	0xba90953f	-0.0011030807
20	0xba828588	-0.0009958008
21	0x39e849b8	0.00044305413
22	0xbb031db9	-0.002000673
23	0xbae5cabd	-0.0017531734
24	0x3b01dbbc	0.001981481
25	0xbb22e642	-0.0024856483
26	0xbb041b92	-0.0020158035
27	0x3ae43a9c	0.0017412486
28	0x3aa93df8	0.0012912145
29	0x39889c08	0.00026056194
30	0xbb226310	-0.0024778284
31	0x3ae40e4c	0.001739928
32	0xbb43c30f	-0.0029870903
33	0xba6296e0	-0.0008643698
34	0x3b0ae00a	0.0021190667
35	0xbb05de0e	-0.0020426544
36	0x3ab5182c	0.0013816408
37	0x3a8b592c	0.0010631434
38	0xb8539ec0	-5.0454168e-05
39	0xbaa69f71	-0.0012712312
40	0xbaa866e3	-0.0012848045
41	0xbb3ed7fe	-0.002912044
42	0x3b2f745c	0.0026772236
43	0xbb2244bc	-0.0024760207
44	0xbadd447d	-0.0016881373
45	0x3a830994	0.0009997361
46	0xbb380910	-0.0028081574
47	0xbb108db5	-0.002205712
48	0xba84019e	-0.0010071283
49	0xbb24c4df	-0.0025141758
50	0x3ac2a024	0.0014848751
51	0xbb3264e8	-0.002722079
52	0x3994aa70	0.00028355746
53	0x3acc260c	0.0015575304
54	0xb9b74ee0	-0.00034963246
55	0xba41046c	-0.00073630246
56	0xb7114f00	-8.661067e-06
57	0x39e1e7c8	0.00043088035
58	0xbb373b7e	-0.0027959044
59	0xbaf23f9b	-0.0018482091
60	0x3a962538	0.0011455184
61	0xb9a82908	-0.00032074028
62	0x3a98b0f4	0.0011649416
63	0xbb2b6989	-0.0026155433
64	0x3b18fe3a	0.002334489
65	0x3b3531c0	0.0027648062
66	0xba934321	-0.0011235216
67	0x3af70d54	0.0018848577
68	0x3b0caaf8	0.002146421
69	0x3a14a968	0.00056709955
70	0xb92e8c40	-0.0001664618
71	0xbb40be71	-0.0029410387
72	0xb9a4a8d8	-0.00031406316
73	0x3ad7cd90	0.0016464461
74	0x39099380	0.00013120286
75	0xbb31d7d7	-0.0027136707
76	0xbb1bd99a	-0.0023780824
77	0xbb07a128	-0.0020695422
78	0x3b3f2aa8	0.0029169712
79	0x3a8540b8	0.0010166382
80	0x39d75af8	0.00041075773
81	0x38869220	6.416836e-05
82	0x3aedacec	0.00181332
83	0x3adc0e58	0.0016788943
84	0x3b086812	0.0020813984
85	0x3b29787c	0.0025859168
86	0x3b380a62	0.002808236
87	0xba2dbd78	-0.00066276593
88	0x3b023038	0.0019865166
89	0xba9df8a3	-0.0012052249
90	0x3aaf7be0	0.0013388358
91	0x3addc12c	0.0016918532
92	0xbb350349	-0.0027620366
93	0x3a349a84	0.00068894797
94	0xbb21d130	-0.0024691336
95	0xb7c3e800	-2.3353845e-05
96	0xbaa0f0ae	-0.0012278759
97	0x3b445c74	0.0029962333
98	0xb9872818	-0.0002577908
99	0x3b186bce	0.0023257616
100	0x3b230d6c	0.0024879826
101	0x3a715a30	0.00092068594
102	0xba68b600	-0.0008877218
103	0xba959b83	-0.0011414144
104	0x3b10d6a6	0.0022100597
105	0x3af017e0	0.0018317662
106	0x3ab58584	0.0013848995
107	0xba8b6ba0	-0.0010636933
108	0xbb1d5f89	-0.0024013242
109	0x3a295234	0.00064590876
110	0x3ad48b84	0.0016215895
111	0xbb3b5163	-0.0028582446
112	0xba9732dd	-0.0011535544
113	0xbb2bd284	-0.0026218006
114	0x3b2d13ca	0.00264095
115	0x39e16e28	0.00042997417
116	0xbb115449	-0.0022175482
117	0xbb3b6536	-0.0028594262
118	0xbb3e8672	-0.0029071835
119	0x3a22dd18	0.0006212755
120	0x3ad179b4	0.0015981705
121	0xba58d5b4	-0.00082715903
122	0xbb118ccc	-0.0022209166
123	0xbb007538	-0.0019601118
124	0xbb038802	-0.002007008
125	0x3b1e0bb2	0.0024115858
126	0x3a20d08c	0.00061345915
127	0x395320f0	0.00020134798
128	0x3aa1b5dc	0.0012337524
129	0xba810a0e	-0.0009844915
130	0xbb06fb8c	-0.002059671
131	0xbb3b749d	-0.0028603442
132	0x3b15c200	0.0022851229
133	0x3b1c8ab6	0.002388639
134	0xba904977	-0.0011008222
135	0x3ac02360	0.001465898
136	0x3aaea9dc	0.0013325769
137	0x3add6ca0	0.0016893335
138	0xbafd7fdb	-0.0019340472
139	0x3b0cc936	0.0021482236
140	0x3a44a87c	0.0007501913
141	0x3afc6714	0.0019256794
142	0xba5bd2dc	-0.00083856075
143	0x3b13959a	0.002251959
144	0x3a0fbe8c	0.0005483411
145	0x3afc5888	0.0019252459
146	0xbb421251	-0.0029612968
147	0x3a647088	0.0008714278
148	0xb9a29070	-0.00031006662
149	0x39c07458	0.00036707777
150	0xb9c9a368	-0.00038459455
151	0xbaf455f4	-0.0018641339
152	0xbac5f249	-0.0015102114
153	0x3b31efaa	0.0027150908
154	0xbb085c75	-0.0020807062
155	0x3afe4ecc	0.0019402145
156	0x3a9e084c	0.0012056916
157	0xbb050825	-0.0020299044
158	0x3b0c97f2	0.002145287
159	0x3b1844c8	0.0023234356
160	0x396b44e0	0.00022437004
161	0x3aa78b7c	0.0012782658
162	0x3a5e0188	0.0008468856
163	0xb919d300	-0.0001466982
164	0x3b23d380	0.002499789
165	0xbb22921e	-0.002480633
166	0xbb1003ed	-0.0021974996
167	0xbb279b52	-0.0025574756
168	0x3b2a7cc4	0.0026014308
169	0x3b00eefc	0.0019673696
170	0xba082350	-0.000519325
171	0x3a1810fc	0.0005800871
172	0x3ac35284	0.0014901911
173	0x39a2fd28	0.00031087664
174	0x3a16bc40	0.00057500973
175	0xbab4d87b	-0.0013797426
176	0x3afb6ea0	0.0019182749
177	0xbac29014	-0.0014843964
178	0xbb431378	-0.0029766243
179	0xbade0263	-0.0016937967
180	0xba0c2304	-0.0005345794
181	0xba4e078c	-0.0007859401
182	0x377d1900	1.5085796e-05
183	0x3a42de6c	0.0007433656
184	0x3b281db0	0.002565246
185	0x3b315372	0.0027057794
186	0xbb28e9a2	-0.0025774022
187	0x3a988b24	0.0011638147
188	0xba618d64	-0.00086041377
189	0x3a0a9df8	0.00052878214
190	0x3a1cc438	0.00059801666
191	0x3b409d66	0.0029390692
192	0x39fef488	0.00048628845
193	0xbb0250ac	-0.001988451
194	0xbaf3b5e6	-0.0018593639
195	0xbb17024b	-0.0023042138
196	0x3b311cf8	0.0027025323
197	0x3b299364	0.0025875205
198	0xbb0f8a2c	-0.0021902425
199	0x396e63b0	0.00022734585
200	0xbb291ebe	-0.0025805677
201	0x3b2ae350	0.002607543
202	0xbb42dd4c	-0.0029733954
203	0xba3805fc	-0.0007019935
204	0x3aaff740	0.0013425127
205	0xbacc59cc	-0.0015590726
206	0xbaba72c5	-0.0014224878
207	0x3b0f3cca	0.0021856301
208	0xb8fcc500	-0.000120529905
209	0x3aef48e4	0.0018255976
210	0xbacd6269	-0.0015669587
211	0xba20d45c	-0.00061351596
212	0x3b37e65c	0.002806089
213	0xb9b20138	-0.00033951714
214	0xb9e121b0	-0.00042940443
215	0xb9d4fa30	-0.00040622195
216	0x3b240eea	0.0025033304
217	0x39090cf0	0.00013070158
218	0xbaa88c73	-0.001285924
219	0x39aa4010	0.00032472657
220	0xb9977470	-0.00028887717
221	0xbace3af3	-0.0015734121
222	0xbaef777d	-0.0018269863
223	0x3b2d07b6	0.00264023
224	0xbab1ae2e	-0.0013555938
225	0xbaee1095	-0.0018162901
226	0x388fa320	6.849156e-05
227	0xb97089b0	-0.00022939476
228	0x3a09f6b8	0.0005262899
229	0x3a946d0c	0.0011324002
230	0x3b29a7f8	0.002588747
231	0x3abaad68	0.0014242353
232	0xba240fa4	-0.0006258434
233	0x3a574178	0.0008211355
234	0xbaec4f8d	-0.0018029079
235	0x3a3d518c	0.0007221929
236	0x3b0193f8	0.0019772034
237	0x3a96c794	0.0011503571
238	0xbace8d04	-0.0015758579
239	0xbb307a66	-0.0026928424
240	0xba441084	-0.00074792677
241	0x3af4fab8	0.0018690443
242	0x3a577f64	0.0008220582
243	0x3b2b9b88	0.0026185233
244	0x3b333df6	0.0027350164
245	0x39b4e128	0.0003450003
246	0x3aca770c	0.0015446856
247	0xbb2f6666	-0.0026763915
248	0x3b11a1b6	0.0022221631
249	0x3b336aac	0.0027376814
250	0xbadc20d1	-0.0016794448
251	0x3b1d7bce	0.0024030092
252	0xba8754b0	-0.0010324921
253	0xbb0b3a7e	-0.002124458
254	0x3a97ed0c	0.0011591031
255	0xbade7b22	-0.0016973952

fc3.bias f4 [4]
0	0xbd86a247	-0.06573921
1	0xbd8ee738	-0.06977695
2	0xbd0347cb	-0.03205089
3	0x3d00a30e	0.0314055
